{"format": "graph-model", "generatedBy": "2.15.0", "convertedBy": "TensorFlow.js Converter v4.17.0", "signature": {"inputs": {"input_layer": {"name": "input_layer:0", "dtype": "DT_INT32", "tensorShape": {"dim": [{"size": "-1"}, {"size": "100"}]}}}, "outputs": {"dense_7": {"name": "Identity:0", "dtype": "DT_FLOAT", "tensorShape": {"dim": [{"size": "-1"}, {"size": "1"}]}}}}, "modelTopology": {"node": [{"name": "StatefulPartitionedCall/Transformer_encoder/bidirectional_4/forward_LSTM_2/TensorArrayV2Stack/TensorListStack/element_shape", "op": "Const", "attr": {"value": {"tensor": {"dtype": "DT_INT32", "tensorShape": {"dim": [{"size": "2"}]}}}, "dtype": {"type": "DT_INT32"}}}, {"name": "StatefulPartitionedCall/Transformer_encoder/bidirectional_4/forward_LSTM_2/strided_slice_3/stack", "op": "Const", "attr": {"dtype": {"type": "DT_INT32"}, "value": {"tensor": {"dtype": "DT_INT32", "tensorShape": {"dim": [{"size": "1"}]}}}}}, {"name": "StatefulPartitionedCall/Transformer_encoder/bidirectional_4/forward_LSTM_2/strided_slice_3/stack_1", "op": "Const", "attr": {"value": {"tensor": {"dtype": "DT_INT32", "tensorShape": {"dim": [{"size": "1"}]}}}, "dtype": {"type": "DT_INT32"}}}, {"name": "StatefulPartitionedCall/Transformer_encoder/bidirectional_4/forward_LSTM_2/strided_slice_3/stack_2", "op": "Const", "attr": {"dtype": {"type": "DT_INT32"}, "value": {"tensor": {"dtype": "DT_INT32", "tensorShape": {"dim": [{"size": "1"}]}}}}}, {"name": "StatefulPartitionedCall/Transformer_encoder/bidirectional_4/backward_LSTM_2/TensorArrayV2Stack/TensorListStack/element_shape", "op": "Const", "attr": {"value": {"tensor": {"dtype": "DT_INT32", "tensorShape": {"dim": [{"size": "2"}]}}}, "dtype": {"type": "DT_INT32"}}}, {"name": "StatefulPartitionedCall/Transformer_encoder/bidirectional_4/backward_LSTM_2/strided_slice_3/stack", "op": "Const", "attr": {"dtype": {"type": "DT_INT32"}, "value": {"tensor": {"dtype": "DT_INT32", "tensorShape": {"dim": [{"size": "1"}]}}}}}, {"name": "StatefulPartitionedCall/Transformer_encoder/bidirectional_4/backward_LSTM_2/strided_slice_3/stack_1", "op": "Const", "attr": {"value": {"tensor": {"dtype": "DT_INT32", "tensorShape": {"dim": [{"size": "1"}]}}}, "dtype": {"type": "DT_INT32"}}}, {"name": "StatefulPartitionedCall/Transformer_encoder/bidirectional_4/backward_LSTM_2/strided_slice_3/stack_2", "op": "Const", "attr": {"dtype": {"type": "DT_INT32"}, "value": {"tensor": {"dtype": "DT_INT32", "tensorShape": {"dim": [{"size": "1"}]}}}}}, {"name": "StatefulPartitionedCall/Transformer_encoder/bidirectional_4/concat/axis", "op": "Const", "attr": {"dtype": {"type": "DT_INT32"}, "value": {"tensor": {"dtype": "DT_INT32", "tensorShape": {}}}}}, {"name": "StatefulPartitionedCall/Transformer_encoder/dense_4/MatMul/ReadVariableOp", "op": "Const", "attr": {"value": {"tensor": {"dtype": "DT_FLOAT", "tensorShape": {"dim": [{"size": "128"}, {"size": "128"}]}}}, "dtype": {"type": "DT_FLOAT"}}}, {"name": "StatefulPartitionedCall/Transformer_encoder/dense_4/BiasAdd/ReadVariableOp", "op": "Const", "attr": {"dtype": {"type": "DT_FLOAT"}, "value": {"tensor": {"dtype": "DT_FLOAT", "tensorShape": {"dim": [{"size": "128"}]}}}}}, {"name": "StatefulPartitionedCall/Transformer_encoder/dense_5/MatMul/ReadVariableOp", "op": "Const", "attr": {"dtype": {"type": "DT_FLOAT"}, "value": {"tensor": {"dtype": "DT_FLOAT", "tensorShape": {"dim": [{"size": "128"}, {"size": "64"}]}}}}}, {"name": "StatefulPartitionedCall/Transformer_encoder/dense_5/BiasAdd/ReadVariableOp", "op": "Const", "attr": {"value": {"tensor": {"dtype": "DT_FLOAT", "tensorShape": {"dim": [{"size": "64"}]}}}, "dtype": {"type": "DT_FLOAT"}}}, {"name": "StatefulPartitionedCall/Transformer_encoder/dense_6/MatMul/ReadVariableOp", "op": "Const", "attr": {"value": {"tensor": {"dtype": "DT_FLOAT", "tensorShape": {"dim": [{"size": "64"}, {"size": "32"}]}}}, "dtype": {"type": "DT_FLOAT"}}}, {"name": "StatefulPartitionedCall/Transformer_encoder/dense_6/BiasAdd/ReadVariableOp", "op": "Const", "attr": {"value": {"tensor": {"dtype": "DT_FLOAT", "tensorShape": {"dim": [{"size": "32"}]}}}, "dtype": {"type": "DT_FLOAT"}}}, {"name": "StatefulPartitionedCall/Transformer_encoder/dense_7/MatMul/ReadVariableOp", "op": "Const", "attr": {"value": {"tensor": {"dtype": "DT_FLOAT", "tensorShape": {"dim": [{"size": "32"}, {"size": "1"}]}}}, "dtype": {"type": "DT_FLOAT"}}}, {"name": "StatefulPartitionedCall/Transformer_encoder/dense_7/BiasAdd/ReadVariableOp", "op": "Const", "attr": {"value": {"tensor": {"dtype": "DT_FLOAT", "tensorShape": {"dim": [{"size": "1"}]}}}, "dtype": {"type": "DT_FLOAT"}}}, {"name": "StatefulPartitionedCall/Transformer_encoder/bidirectional_4/backward_LSTM_2/time", "op": "Const", "attr": {"_has_manual_control_dependencies": {"b": true}, "value": {"tensor": {"dtype": "DT_INT32", "tensorShape": {}}}, "dtype": {"type": "DT_INT32"}}}, {"name": "StatefulPartitionedCall/Transformer_encoder/bidirectional_4/backward_LSTM_2/while/loop_counter", "op": "Const", "attr": {"_has_manual_control_dependencies": {"b": true}, "dtype": {"type": "DT_INT32"}, "value": {"tensor": {"dtype": "DT_INT32", "tensorShape": {}}}}}, {"name": "StatefulPartitionedCall/Transformer_encoder/bidirectional_4/backward_LSTM_2/while/maximum_iterations", "op": "Const", "attr": {"value": {"tensor": {"dtype": "DT_INT32", "tensorShape": {}}}, "dtype": {"type": "DT_INT32"}, "_has_manual_control_dependencies": {"b": true}}}, {"name": "Func/StatefulPartitionedCall/input/_41", "op": "Const", "attr": {"dtype": {"type": "DT_FLOAT"}, "value": {"tensor": {"dtype": "DT_FLOAT", "tensorShape": {"dim": [{"size": "128"}, {"size": "256"}]}}}}}, {"name": "Func/StatefulPartitionedCall/input/_42", "op": "Const", "attr": {"dtype": {"type": "DT_FLOAT"}, "value": {"tensor": {"dtype": "DT_FLOAT", "tensorShape": {"dim": [{"size": "256"}]}}}}}, {"name": "Func/StatefulPartitionedCall/input/_43", "op": "Const", "attr": {"dtype": {"type": "DT_FLOAT"}, "value": {"tensor": {"dtype": "DT_FLOAT", "tensorShape": {"dim": [{"size": "64"}, {"size": "256"}]}}}}}, {"name": "StatefulPartitionedCall/Transformer_encoder/bidirectional_4/backward_LSTM_2/strided_slice_1/stack", "op": "Const", "attr": {"dtype": {"type": "DT_INT32"}, "value": {"tensor": {"dtype": "DT_INT32", "tensorShape": {"dim": [{"size": "1"}]}}}}}, {"name": "StatefulPartitionedCall/Transformer_encoder/bidirectional_4/backward_LSTM_2/strided_slice_1/stack_1", "op": "Const", "attr": {"value": {"tensor": {"dtype": "DT_INT32", "tensorShape": {"dim": [{"size": "1"}]}}}, "dtype": {"type": "DT_INT32"}}}, {"name": "StatefulPartitionedCall/Transformer_encoder/bidirectional_4/backward_LSTM_2/strided_slice_1/stack_2", "op": "Const", "attr": {"value": {"tensor": {"dtype": "DT_INT32", "tensorShape": {"dim": [{"size": "1"}]}}}, "dtype": {"type": "DT_INT32"}}}, {"name": "StatefulPartitionedCall/Transformer_encoder/bidirectional_4/backward_LSTM_2/zeros_1/packed/1", "op": "Const", "attr": {"dtype": {"type": "DT_INT32"}, "value": {"tensor": {"dtype": "DT_INT32", "tensorShape": {}}}}}, {"name": "StatefulPartitionedCall/Transformer_encoder/bidirectional_4/backward_LSTM_2/zeros_1/Const", "op": "Const", "attr": {"value": {"tensor": {"dtype": "DT_FLOAT", "tensorShape": {}}}, "dtype": {"type": "DT_FLOAT"}}}, {"name": "StatefulPartitionedCall/Transformer_encoder/bidirectional_4/backward_LSTM_2/strided_slice/stack", "op": "Const", "attr": {"dtype": {"type": "DT_INT32"}, "value": {"tensor": {"dtype": "DT_INT32", "tensorShape": {"dim": [{"size": "1"}]}}}}}, {"name": "StatefulPartitionedCall/Transformer_encoder/bidirectional_4/backward_LSTM_2/strided_slice/stack_1", "op": "Const", "attr": {"value": {"tensor": {"dtype": "DT_INT32", "tensorShape": {"dim": [{"size": "1"}]}}}, "dtype": {"type": "DT_INT32"}}}, {"name": "StatefulPartitionedCall/Transformer_encoder/bidirectional_4/backward_LSTM_2/strided_slice/stack_2", "op": "Const", "attr": {"value": {"tensor": {"dtype": "DT_INT32", "tensorShape": {"dim": [{"size": "1"}]}}}, "dtype": {"type": "DT_INT32"}}}, {"name": "StatefulPartitionedCall/Transformer_encoder/bidirectional_4/backward_LSTM_2/zeros/packed/1", "op": "Const", "attr": {"dtype": {"type": "DT_INT32"}, "value": {"tensor": {"dtype": "DT_INT32", "tensorShape": {}}}}}, {"name": "StatefulPartitionedCall/Transformer_encoder/bidirectional_4/backward_LSTM_2/zeros/Const", "op": "Const", "attr": {"dtype": {"type": "DT_FLOAT"}, "value": {"tensor": {"dtype": "DT_FLOAT", "tensorShape": {}}}}}, {"name": "StatefulPartitionedCall/Transformer_encoder/bidirectional_4/backward_LSTM_2/transpose/perm", "op": "Const", "attr": {"value": {"tensor": {"dtype": "DT_INT32", "tensorShape": {"dim": [{"size": "3"}]}}}, "dtype": {"type": "DT_INT32"}}}, {"name": "StatefulPartitionedCall/Transformer_encoder/bidirectional_4/backward_LSTM_2/ReverseV2/axis", "op": "Const", "attr": {"dtype": {"type": "DT_INT32"}, "value": {"tensor": {"dtype": "DT_INT32", "tensorShape": {"dim": [{"size": "1"}]}}}}}, {"name": "StatefulPartitionedCall/Transformer_encoder/bidirectional_4/backward_LSTM_2/TensorArrayUnstack/TensorListFromTensor/element_shape", "op": "Const", "attr": {"dtype": {"type": "DT_INT32"}, "value": {"tensor": {"dtype": "DT_INT32", "tensorShape": {"dim": [{"size": "2"}]}}}}}, {"name": "StatefulPartitionedCall/Transformer_encoder/bidirectional_4/backward_LSTM_2/TensorArrayV2_1/element_shape", "op": "Const", "attr": {"value": {"tensor": {"dtype": "DT_INT32", "tensorShape": {"dim": [{"size": "2"}]}}}, "dtype": {"type": "DT_INT32"}}}, {"name": "StatefulPartitionedCall/Transformer_encoder/bidirectional_4/backward_LSTM_2/TensorArrayV2_1/num_elements", "op": "Const", "attr": {"dtype": {"type": "DT_INT32"}, "value": {"tensor": {"dtype": "DT_INT32", "tensorShape": {}}}}}, {"name": "StatefulPartitionedCall/Transformer_encoder/bidirectional_4/forward_LSTM_2/while/loop_counter", "op": "Const", "attr": {"value": {"tensor": {"dtype": "DT_INT32", "tensorShape": {}}}, "dtype": {"type": "DT_INT32"}, "_has_manual_control_dependencies": {"b": true}}}, {"name": "StatefulPartitionedCall/Transformer_encoder/bidirectional_4/forward_LSTM_2/while/maximum_iterations", "op": "Const", "attr": {"dtype": {"type": "DT_INT32"}, "_has_manual_control_dependencies": {"b": true}, "value": {"tensor": {"dtype": "DT_INT32", "tensorShape": {}}}}}, {"name": "StatefulPartitionedCall/Transformer_encoder/bidirectional_4/forward_LSTM_2/time", "op": "Const", "attr": {"dtype": {"type": "DT_INT32"}, "_has_manual_control_dependencies": {"b": true}, "value": {"tensor": {"dtype": "DT_INT32", "tensorShape": {}}}}}, {"name": "Func/StatefulPartitionedCall/input/_38", "op": "Const", "attr": {"value": {"tensor": {"dtype": "DT_FLOAT", "tensorShape": {"dim": [{"size": "128"}, {"size": "256"}]}}}, "dtype": {"type": "DT_FLOAT"}}}, {"name": "Func/StatefulPartitionedCall/input/_39", "op": "Const", "attr": {"value": {"tensor": {"dtype": "DT_FLOAT", "tensorShape": {"dim": [{"size": "256"}]}}}, "dtype": {"type": "DT_FLOAT"}}}, {"name": "Func/StatefulPartitionedCall/input/_40", "op": "Const", "attr": {"value": {"tensor": {"dtype": "DT_FLOAT", "tensorShape": {"dim": [{"size": "64"}, {"size": "256"}]}}}, "dtype": {"type": "DT_FLOAT"}}}, {"name": "StatefulPartitionedCall/Transformer_encoder/bidirectional_4/forward_LSTM_2/strided_slice_1/stack", "op": "Const", "attr": {"value": {"tensor": {"dtype": "DT_INT32", "tensorShape": {"dim": [{"size": "1"}]}}}, "dtype": {"type": "DT_INT32"}}}, {"name": "StatefulPartitionedCall/Transformer_encoder/bidirectional_4/forward_LSTM_2/strided_slice_1/stack_1", "op": "Const", "attr": {"dtype": {"type": "DT_INT32"}, "value": {"tensor": {"dtype": "DT_INT32", "tensorShape": {"dim": [{"size": "1"}]}}}}}, {"name": "StatefulPartitionedCall/Transformer_encoder/bidirectional_4/forward_LSTM_2/strided_slice_1/stack_2", "op": "Const", "attr": {"value": {"tensor": {"dtype": "DT_INT32", "tensorShape": {"dim": [{"size": "1"}]}}}, "dtype": {"type": "DT_INT32"}}}, {"name": "StatefulPartitionedCall/Transformer_encoder/bidirectional_4/forward_LSTM_2/zeros_1/packed/1", "op": "Const", "attr": {"value": {"tensor": {"dtype": "DT_INT32", "tensorShape": {}}}, "dtype": {"type": "DT_INT32"}}}, {"name": "StatefulPartitionedCall/Transformer_encoder/bidirectional_4/forward_LSTM_2/zeros_1/Const", "op": "Const", "attr": {"value": {"tensor": {"dtype": "DT_FLOAT", "tensorShape": {}}}, "dtype": {"type": "DT_FLOAT"}}}, {"name": "StatefulPartitionedCall/Transformer_encoder/bidirectional_4/forward_LSTM_2/strided_slice/stack", "op": "Const", "attr": {"dtype": {"type": "DT_INT32"}, "value": {"tensor": {"dtype": "DT_INT32", "tensorShape": {"dim": [{"size": "1"}]}}}}}, {"name": "StatefulPartitionedCall/Transformer_encoder/bidirectional_4/forward_LSTM_2/strided_slice/stack_1", "op": "Const", "attr": {"dtype": {"type": "DT_INT32"}, "value": {"tensor": {"dtype": "DT_INT32", "tensorShape": {"dim": [{"size": "1"}]}}}}}, {"name": "StatefulPartitionedCall/Transformer_encoder/bidirectional_4/forward_LSTM_2/strided_slice/stack_2", "op": "Const", "attr": {"dtype": {"type": "DT_INT32"}, "value": {"tensor": {"dtype": "DT_INT32", "tensorShape": {"dim": [{"size": "1"}]}}}}}, {"name": "StatefulPartitionedCall/Transformer_encoder/bidirectional_4/forward_LSTM_2/zeros/packed/1", "op": "Const", "attr": {"dtype": {"type": "DT_INT32"}, "value": {"tensor": {"dtype": "DT_INT32", "tensorShape": {}}}}}, {"name": "StatefulPartitionedCall/Transformer_encoder/bidirectional_4/forward_LSTM_2/zeros/Const", "op": "Const", "attr": {"dtype": {"type": "DT_FLOAT"}, "value": {"tensor": {"dtype": "DT_FLOAT", "tensorShape": {}}}}}, {"name": "StatefulPartitionedCall/Transformer_encoder/bidirectional_3/forward_LSTM_1/while/loop_counter", "op": "Const", "attr": {"_has_manual_control_dependencies": {"b": true}, "value": {"tensor": {"dtype": "DT_INT32", "tensorShape": {}}}, "dtype": {"type": "DT_INT32"}}}, {"name": "StatefulPartitionedCall/Transformer_encoder/bidirectional_3/forward_LSTM_1/while/maximum_iterations", "op": "Const", "attr": {"_has_manual_control_dependencies": {"b": true}, "dtype": {"type": "DT_INT32"}, "value": {"tensor": {"dtype": "DT_INT32", "tensorShape": {}}}}}, {"name": "StatefulPartitionedCall/Transformer_encoder/bidirectional_3/forward_LSTM_1/time", "op": "Const", "attr": {"value": {"tensor": {"dtype": "DT_INT32", "tensorShape": {}}}, "_has_manual_control_dependencies": {"b": true}, "dtype": {"type": "DT_INT32"}}}, {"name": "Func/StatefulPartitionedCall/input/_32", "op": "Const", "attr": {"dtype": {"type": "DT_FLOAT"}, "value": {"tensor": {"dtype": "DT_FLOAT", "tensorShape": {"dim": [{"size": "128"}, {"size": "256"}]}}}}}, {"name": "Func/StatefulPartitionedCall/input/_33", "op": "Const", "attr": {"dtype": {"type": "DT_FLOAT"}, "value": {"tensor": {"dtype": "DT_FLOAT", "tensorShape": {"dim": [{"size": "256"}]}}}}}, {"name": "Func/StatefulPartitionedCall/input/_34", "op": "Const", "attr": {"value": {"tensor": {"dtype": "DT_FLOAT", "tensorShape": {"dim": [{"size": "64"}, {"size": "256"}]}}}, "dtype": {"type": "DT_FLOAT"}}}, {"name": "StatefulPartitionedCall/Transformer_encoder/bidirectional_3/forward_LSTM_1/TensorArrayV2_1/element_shape", "op": "Const", "attr": {"dtype": {"type": "DT_INT32"}, "value": {"tensor": {"dtype": "DT_INT32", "tensorShape": {"dim": [{"size": "2"}]}}}}}, {"name": "StatefulPartitionedCall/Transformer_encoder/bidirectional_3/forward_LSTM_1/strided_slice_1/stack", "op": "Const", "attr": {"dtype": {"type": "DT_INT32"}, "value": {"tensor": {"dtype": "DT_INT32", "tensorShape": {"dim": [{"size": "1"}]}}}}}, {"name": "StatefulPartitionedCall/Transformer_encoder/bidirectional_3/forward_LSTM_1/strided_slice_1/stack_1", "op": "Const", "attr": {"dtype": {"type": "DT_INT32"}, "value": {"tensor": {"dtype": "DT_INT32", "tensorShape": {"dim": [{"size": "1"}]}}}}}, {"name": "StatefulPartitionedCall/Transformer_encoder/bidirectional_3/forward_LSTM_1/strided_slice_1/stack_2", "op": "Const", "attr": {"value": {"tensor": {"dtype": "DT_INT32", "tensorShape": {"dim": [{"size": "1"}]}}}, "dtype": {"type": "DT_INT32"}}}, {"name": "StatefulPartitionedCall/Transformer_encoder/bidirectional_3/forward_LSTM_1/zeros_1/packed/1", "op": "Const", "attr": {"dtype": {"type": "DT_INT32"}, "value": {"tensor": {"dtype": "DT_INT32", "tensorShape": {}}}}}, {"name": "StatefulPartitionedCall/Transformer_encoder/bidirectional_3/forward_LSTM_1/zeros_1/Const", "op": "Const", "attr": {"dtype": {"type": "DT_FLOAT"}, "value": {"tensor": {"dtype": "DT_FLOAT", "tensorShape": {}}}}}, {"name": "StatefulPartitionedCall/Transformer_encoder/bidirectional_3/forward_LSTM_1/strided_slice/stack", "op": "Const", "attr": {"dtype": {"type": "DT_INT32"}, "value": {"tensor": {"dtype": "DT_INT32", "tensorShape": {"dim": [{"size": "1"}]}}}}}, {"name": "StatefulPartitionedCall/Transformer_encoder/bidirectional_3/forward_LSTM_1/strided_slice/stack_1", "op": "Const", "attr": {"value": {"tensor": {"dtype": "DT_INT32", "tensorShape": {"dim": [{"size": "1"}]}}}, "dtype": {"type": "DT_INT32"}}}, {"name": "StatefulPartitionedCall/Transformer_encoder/bidirectional_3/forward_LSTM_1/strided_slice/stack_2", "op": "Const", "attr": {"dtype": {"type": "DT_INT32"}, "value": {"tensor": {"dtype": "DT_INT32", "tensorShape": {"dim": [{"size": "1"}]}}}}}, {"name": "StatefulPartitionedCall/Transformer_encoder/bidirectional_3/forward_LSTM_1/zeros/packed/1", "op": "Const", "attr": {"value": {"tensor": {"dtype": "DT_INT32", "tensorShape": {}}}, "dtype": {"type": "DT_INT32"}}}, {"name": "StatefulPartitionedCall/Transformer_encoder/bidirectional_3/forward_LSTM_1/zeros/Const", "op": "Const", "attr": {"dtype": {"type": "DT_FLOAT"}, "value": {"tensor": {"dtype": "DT_FLOAT", "tensorShape": {}}}}}, {"name": "StatefulPartitionedCall/Transformer_encoder/bidirectional_3/forward_LSTM_1/transpose/perm", "op": "Const", "attr": {"value": {"tensor": {"dtype": "DT_INT32", "tensorShape": {"dim": [{"size": "3"}]}}}, "dtype": {"type": "DT_INT32"}}}, {"name": "StatefulPartitionedCall/Transformer_encoder/bidirectional_3/forward_LSTM_1/TensorArrayUnstack/TensorListFromTensor/element_shape", "op": "Const", "attr": {"value": {"tensor": {"dtype": "DT_INT32", "tensorShape": {"dim": [{"size": "2"}]}}}, "dtype": {"type": "DT_INT32"}}}, {"name": "StatefulPartitionedCall/Transformer_encoder/bidirectional_3/forward_LSTM_1/TensorArrayV2Stack/TensorListStack/element_shape", "op": "Const", "attr": {"dtype": {"type": "DT_INT32"}, "value": {"tensor": {"dtype": "DT_INT32", "tensorShape": {"dim": [{"size": "2"}]}}}}}, {"name": "StatefulPartitionedCall/Transformer_encoder/bidirectional_3/forward_LSTM_1/transpose_1/perm", "op": "Const", "attr": {"dtype": {"type": "DT_INT32"}, "value": {"tensor": {"dtype": "DT_INT32", "tensorShape": {"dim": [{"size": "3"}]}}}}}, {"name": "StatefulPartitionedCall/Transformer_encoder/bidirectional_3/backward_LSTM_1/while/loop_counter", "op": "Const", "attr": {"dtype": {"type": "DT_INT32"}, "_has_manual_control_dependencies": {"b": true}, "value": {"tensor": {"dtype": "DT_INT32", "tensorShape": {}}}}}, {"name": "StatefulPartitionedCall/Transformer_encoder/bidirectional_3/backward_LSTM_1/while/maximum_iterations", "op": "Const", "attr": {"dtype": {"type": "DT_INT32"}, "value": {"tensor": {"dtype": "DT_INT32", "tensorShape": {}}}, "_has_manual_control_dependencies": {"b": true}}}, {"name": "StatefulPartitionedCall/Transformer_encoder/bidirectional_3/backward_LSTM_1/time", "op": "Const", "attr": {"value": {"tensor": {"dtype": "DT_INT32", "tensorShape": {}}}, "dtype": {"type": "DT_INT32"}, "_has_manual_control_dependencies": {"b": true}}}, {"name": "Func/StatefulPartitionedCall/input/_35", "op": "Const", "attr": {"dtype": {"type": "DT_FLOAT"}, "value": {"tensor": {"dtype": "DT_FLOAT", "tensorShape": {"dim": [{"size": "128"}, {"size": "256"}]}}}}}, {"name": "Func/StatefulPartitionedCall/input/_36", "op": "Const", "attr": {"dtype": {"type": "DT_FLOAT"}, "value": {"tensor": {"dtype": "DT_FLOAT", "tensorShape": {"dim": [{"size": "256"}]}}}}}, {"name": "Func/StatefulPartitionedCall/input/_37", "op": "Const", "attr": {"dtype": {"type": "DT_FLOAT"}, "value": {"tensor": {"dtype": "DT_FLOAT", "tensorShape": {"dim": [{"size": "64"}, {"size": "256"}]}}}}}, {"name": "StatefulPartitionedCall/Transformer_encoder/bidirectional_3/backward_LSTM_1/TensorArrayV2_1/element_shape", "op": "Const", "attr": {"value": {"tensor": {"dtype": "DT_INT32", "tensorShape": {"dim": [{"size": "2"}]}}}, "dtype": {"type": "DT_INT32"}}}, {"name": "StatefulPartitionedCall/Transformer_encoder/bidirectional_3/backward_LSTM_1/strided_slice_1/stack", "op": "Const", "attr": {"dtype": {"type": "DT_INT32"}, "value": {"tensor": {"dtype": "DT_INT32", "tensorShape": {"dim": [{"size": "1"}]}}}}}, {"name": "StatefulPartitionedCall/Transformer_encoder/bidirectional_3/backward_LSTM_1/strided_slice_1/stack_1", "op": "Const", "attr": {"value": {"tensor": {"dtype": "DT_INT32", "tensorShape": {"dim": [{"size": "1"}]}}}, "dtype": {"type": "DT_INT32"}}}, {"name": "StatefulPartitionedCall/Transformer_encoder/bidirectional_3/backward_LSTM_1/strided_slice_1/stack_2", "op": "Const", "attr": {"value": {"tensor": {"dtype": "DT_INT32", "tensorShape": {"dim": [{"size": "1"}]}}}, "dtype": {"type": "DT_INT32"}}}, {"name": "StatefulPartitionedCall/Transformer_encoder/bidirectional_3/backward_LSTM_1/zeros_1/packed/1", "op": "Const", "attr": {"value": {"tensor": {"dtype": "DT_INT32", "tensorShape": {}}}, "dtype": {"type": "DT_INT32"}}}, {"name": "StatefulPartitionedCall/Transformer_encoder/bidirectional_3/backward_LSTM_1/zeros_1/Const", "op": "Const", "attr": {"value": {"tensor": {"dtype": "DT_FLOAT", "tensorShape": {}}}, "dtype": {"type": "DT_FLOAT"}}}, {"name": "StatefulPartitionedCall/Transformer_encoder/bidirectional_3/backward_LSTM_1/strided_slice/stack", "op": "Const", "attr": {"value": {"tensor": {"dtype": "DT_INT32", "tensorShape": {"dim": [{"size": "1"}]}}}, "dtype": {"type": "DT_INT32"}}}, {"name": "StatefulPartitionedCall/Transformer_encoder/bidirectional_3/backward_LSTM_1/strided_slice/stack_1", "op": "Const", "attr": {"dtype": {"type": "DT_INT32"}, "value": {"tensor": {"dtype": "DT_INT32", "tensorShape": {"dim": [{"size": "1"}]}}}}}, {"name": "StatefulPartitionedCall/Transformer_encoder/bidirectional_3/backward_LSTM_1/strided_slice/stack_2", "op": "Const", "attr": {"dtype": {"type": "DT_INT32"}, "value": {"tensor": {"dtype": "DT_INT32", "tensorShape": {"dim": [{"size": "1"}]}}}}}, {"name": "StatefulPartitionedCall/Transformer_encoder/bidirectional_3/backward_LSTM_1/zeros/packed/1", "op": "Const", "attr": {"value": {"tensor": {"dtype": "DT_INT32", "tensorShape": {}}}, "dtype": {"type": "DT_INT32"}}}, {"name": "StatefulPartitionedCall/Transformer_encoder/bidirectional_3/backward_LSTM_1/zeros/Const", "op": "Const", "attr": {"value": {"tensor": {"dtype": "DT_FLOAT", "tensorShape": {}}}, "dtype": {"type": "DT_FLOAT"}}}, {"name": "StatefulPartitionedCall/Transformer_encoder/bidirectional_2/forward_LSTM_0/while/loop_counter", "op": "Const", "attr": {"value": {"tensor": {"dtype": "DT_INT32", "tensorShape": {}}}, "_has_manual_control_dependencies": {"b": true}, "dtype": {"type": "DT_INT32"}}}, {"name": "StatefulPartitionedCall/Transformer_encoder/bidirectional_2/forward_LSTM_0/while/maximum_iterations", "op": "Const", "attr": {"_has_manual_control_dependencies": {"b": true}, "dtype": {"type": "DT_INT32"}, "value": {"tensor": {"dtype": "DT_INT32", "tensorShape": {}}}}}, {"name": "StatefulPartitionedCall/Transformer_encoder/bidirectional_2/forward_LSTM_0/time", "op": "Const", "attr": {"value": {"tensor": {"dtype": "DT_INT32", "tensorShape": {}}}, "dtype": {"type": "DT_INT32"}, "_has_manual_control_dependencies": {"b": true}}}, {"name": "Func/StatefulPartitionedCall/input/_26", "op": "Const", "attr": {"dtype": {"type": "DT_FLOAT"}, "value": {"tensor": {"dtype": "DT_FLOAT", "tensorShape": {"dim": [{"size": "128"}, {"size": "256"}]}}}}}, {"name": "Func/StatefulPartitionedCall/input/_27", "op": "Const", "attr": {"value": {"tensor": {"dtype": "DT_FLOAT", "tensorShape": {"dim": [{"size": "256"}]}}}, "dtype": {"type": "DT_FLOAT"}}}, {"name": "Func/StatefulPartitionedCall/input/_28", "op": "Const", "attr": {"value": {"tensor": {"dtype": "DT_FLOAT", "tensorShape": {"dim": [{"size": "64"}, {"size": "256"}]}}}, "dtype": {"type": "DT_FLOAT"}}}, {"name": "StatefulPartitionedCall/Transformer_encoder/bidirectional_2/forward_LSTM_0/TensorArrayV2_1/element_shape", "op": "Const", "attr": {"dtype": {"type": "DT_INT32"}, "value": {"tensor": {"dtype": "DT_INT32", "tensorShape": {"dim": [{"size": "2"}]}}}}}, {"name": "StatefulPartitionedCall/Transformer_encoder/bidirectional_2/forward_LSTM_0/strided_slice_1/stack", "op": "Const", "attr": {"dtype": {"type": "DT_INT32"}, "value": {"tensor": {"dtype": "DT_INT32", "tensorShape": {"dim": [{"size": "1"}]}}}}}, {"name": "StatefulPartitionedCall/Transformer_encoder/bidirectional_2/forward_LSTM_0/strided_slice_1/stack_1", "op": "Const", "attr": {"dtype": {"type": "DT_INT32"}, "value": {"tensor": {"dtype": "DT_INT32", "tensorShape": {"dim": [{"size": "1"}]}}}}}, {"name": "StatefulPartitionedCall/Transformer_encoder/bidirectional_2/forward_LSTM_0/strided_slice_1/stack_2", "op": "Const", "attr": {"value": {"tensor": {"dtype": "DT_INT32", "tensorShape": {"dim": [{"size": "1"}]}}}, "dtype": {"type": "DT_INT32"}}}, {"name": "StatefulPartitionedCall/Transformer_encoder/bidirectional_2/forward_LSTM_0/zeros_1/packed/1", "op": "Const", "attr": {"dtype": {"type": "DT_INT32"}, "value": {"tensor": {"dtype": "DT_INT32", "tensorShape": {}}}}}, {"name": "StatefulPartitionedCall/Transformer_encoder/bidirectional_2/forward_LSTM_0/zeros_1/Const", "op": "Const", "attr": {"value": {"tensor": {"dtype": "DT_FLOAT", "tensorShape": {}}}, "dtype": {"type": "DT_FLOAT"}}}, {"name": "StatefulPartitionedCall/Transformer_encoder/bidirectional_2/forward_LSTM_0/strided_slice/stack", "op": "Const", "attr": {"dtype": {"type": "DT_INT32"}, "value": {"tensor": {"dtype": "DT_INT32", "tensorShape": {"dim": [{"size": "1"}]}}}}}, {"name": "StatefulPartitionedCall/Transformer_encoder/bidirectional_2/forward_LSTM_0/strided_slice/stack_1", "op": "Const", "attr": {"value": {"tensor": {"dtype": "DT_INT32", "tensorShape": {"dim": [{"size": "1"}]}}}, "dtype": {"type": "DT_INT32"}}}, {"name": "StatefulPartitionedCall/Transformer_encoder/bidirectional_2/forward_LSTM_0/strided_slice/stack_2", "op": "Const", "attr": {"value": {"tensor": {"dtype": "DT_INT32", "tensorShape": {"dim": [{"size": "1"}]}}}, "dtype": {"type": "DT_INT32"}}}, {"name": "StatefulPartitionedCall/Transformer_encoder/bidirectional_2/forward_LSTM_0/zeros/packed/1", "op": "Const", "attr": {"value": {"tensor": {"dtype": "DT_INT32", "tensorShape": {}}}, "dtype": {"type": "DT_INT32"}}}, {"name": "StatefulPartitionedCall/Transformer_encoder/bidirectional_2/forward_LSTM_0/zeros/Const", "op": "Const", "attr": {"value": {"tensor": {"dtype": "DT_FLOAT", "tensorShape": {}}}, "dtype": {"type": "DT_FLOAT"}}}, {"name": "StatefulPartitionedCall/Transformer_encoder/bidirectional_2/forward_LSTM_0/transpose/perm", "op": "Const", "attr": {"dtype": {"type": "DT_INT32"}, "value": {"tensor": {"dtype": "DT_INT32", "tensorShape": {"dim": [{"size": "3"}]}}}}}, {"name": "StatefulPartitionedCall/Transformer_encoder/bidirectional_2/forward_LSTM_0/TensorArrayUnstack/TensorListFromTensor/element_shape", "op": "Const", "attr": {"dtype": {"type": "DT_INT32"}, "value": {"tensor": {"dtype": "DT_INT32", "tensorShape": {"dim": [{"size": "2"}]}}}}}, {"name": "StatefulPartitionedCall/Transformer_encoder/bidirectional_2/forward_LSTM_0/TensorArrayV2Stack/TensorListStack/element_shape", "op": "Const", "attr": {"dtype": {"type": "DT_INT32"}, "value": {"tensor": {"dtype": "DT_INT32", "tensorShape": {"dim": [{"size": "2"}]}}}}}, {"name": "StatefulPartitionedCall/Transformer_encoder/bidirectional_2/forward_LSTM_0/transpose_1/perm", "op": "Const", "attr": {"dtype": {"type": "DT_INT32"}, "value": {"tensor": {"dtype": "DT_INT32", "tensorShape": {"dim": [{"size": "3"}]}}}}}, {"name": "StatefulPartitionedCall/Transformer_encoder/bidirectional_2/backward_LSTM_0/while/loop_counter", "op": "Const", "attr": {"_has_manual_control_dependencies": {"b": true}, "value": {"tensor": {"dtype": "DT_INT32", "tensorShape": {}}}, "dtype": {"type": "DT_INT32"}}}, {"name": "StatefulPartitionedCall/Transformer_encoder/bidirectional_2/backward_LSTM_0/while/maximum_iterations", "op": "Const", "attr": {"_has_manual_control_dependencies": {"b": true}, "value": {"tensor": {"dtype": "DT_INT32", "tensorShape": {}}}, "dtype": {"type": "DT_INT32"}}}, {"name": "StatefulPartitionedCall/Transformer_encoder/bidirectional_2/backward_LSTM_0/time", "op": "Const", "attr": {"_has_manual_control_dependencies": {"b": true}, "dtype": {"type": "DT_INT32"}, "value": {"tensor": {"dtype": "DT_INT32", "tensorShape": {}}}}}, {"name": "Func/StatefulPartitionedCall/input/_29", "op": "Const", "attr": {"dtype": {"type": "DT_FLOAT"}, "value": {"tensor": {"dtype": "DT_FLOAT", "tensorShape": {"dim": [{"size": "128"}, {"size": "256"}]}}}}}, {"name": "Func/StatefulPartitionedCall/input/_30", "op": "Const", "attr": {"value": {"tensor": {"dtype": "DT_FLOAT", "tensorShape": {"dim": [{"size": "256"}]}}}, "dtype": {"type": "DT_FLOAT"}}}, {"name": "Func/StatefulPartitionedCall/input/_31", "op": "Const", "attr": {"dtype": {"type": "DT_FLOAT"}, "value": {"tensor": {"dtype": "DT_FLOAT", "tensorShape": {"dim": [{"size": "64"}, {"size": "256"}]}}}}}, {"name": "StatefulPartitionedCall/Transformer_encoder/bidirectional_2/backward_LSTM_0/TensorArrayV2_1/element_shape", "op": "Const", "attr": {"value": {"tensor": {"dtype": "DT_INT32", "tensorShape": {"dim": [{"size": "2"}]}}}, "dtype": {"type": "DT_INT32"}}}, {"name": "StatefulPartitionedCall/Transformer_encoder/bidirectional_2/backward_LSTM_0/strided_slice_1/stack", "op": "Const", "attr": {"dtype": {"type": "DT_INT32"}, "value": {"tensor": {"dtype": "DT_INT32", "tensorShape": {"dim": [{"size": "1"}]}}}}}, {"name": "StatefulPartitionedCall/Transformer_encoder/bidirectional_2/backward_LSTM_0/strided_slice_1/stack_1", "op": "Const", "attr": {"dtype": {"type": "DT_INT32"}, "value": {"tensor": {"dtype": "DT_INT32", "tensorShape": {"dim": [{"size": "1"}]}}}}}, {"name": "StatefulPartitionedCall/Transformer_encoder/bidirectional_2/backward_LSTM_0/strided_slice_1/stack_2", "op": "Const", "attr": {"value": {"tensor": {"dtype": "DT_INT32", "tensorShape": {"dim": [{"size": "1"}]}}}, "dtype": {"type": "DT_INT32"}}}, {"name": "StatefulPartitionedCall/Transformer_encoder/bidirectional_2/backward_LSTM_0/zeros_1/packed/1", "op": "Const", "attr": {"value": {"tensor": {"dtype": "DT_INT32", "tensorShape": {}}}, "dtype": {"type": "DT_INT32"}}}, {"name": "StatefulPartitionedCall/Transformer_encoder/bidirectional_2/backward_LSTM_0/zeros_1/Const", "op": "Const", "attr": {"dtype": {"type": "DT_FLOAT"}, "value": {"tensor": {"dtype": "DT_FLOAT", "tensorShape": {}}}}}, {"name": "StatefulPartitionedCall/Transformer_encoder/bidirectional_2/backward_LSTM_0/strided_slice/stack", "op": "Const", "attr": {"dtype": {"type": "DT_INT32"}, "value": {"tensor": {"dtype": "DT_INT32", "tensorShape": {"dim": [{"size": "1"}]}}}}}, {"name": "StatefulPartitionedCall/Transformer_encoder/bidirectional_2/backward_LSTM_0/strided_slice/stack_1", "op": "Const", "attr": {"dtype": {"type": "DT_INT32"}, "value": {"tensor": {"dtype": "DT_INT32", "tensorShape": {"dim": [{"size": "1"}]}}}}}, {"name": "StatefulPartitionedCall/Transformer_encoder/bidirectional_2/backward_LSTM_0/strided_slice/stack_2", "op": "Const", "attr": {"dtype": {"type": "DT_INT32"}, "value": {"tensor": {"dtype": "DT_INT32", "tensorShape": {"dim": [{"size": "1"}]}}}}}, {"name": "StatefulPartitionedCall/Transformer_encoder/bidirectional_2/backward_LSTM_0/zeros/packed/1", "op": "Const", "attr": {"dtype": {"type": "DT_INT32"}, "value": {"tensor": {"dtype": "DT_INT32", "tensorShape": {}}}}}, {"name": "StatefulPartitionedCall/Transformer_encoder/bidirectional_2/backward_LSTM_0/zeros/Const", "op": "Const", "attr": {"dtype": {"type": "DT_FLOAT"}, "value": {"tensor": {"dtype": "DT_FLOAT", "tensorShape": {}}}}}, {"name": "StatefulPartitionedCall/Transformer_encoder/conv1d_4/Conv1D/ExpandDims/dim", "op": "Const", "attr": {"dtype": {"type": "DT_INT32"}, "value": {"tensor": {"dtype": "DT_INT32", "tensorShape": {}}}}}, {"name": "StatefulPartitionedCall/Transformer_encoder/conv1d_4/Conv1D/ExpandDims_1", "op": "Const", "attr": {"dtype": {"type": "DT_FLOAT"}, "value": {"tensor": {"dtype": "DT_FLOAT", "tensorShape": {"dim": [{"size": "1"}, {"size": "5"}, {"size": "100"}, {"size": "128"}]}}}}}, {"name": "StatefulPartitionedCall/Transformer_encoder/conv1d_4/BiasAdd/ReadVariableOp", "op": "Const", "attr": {"value": {"tensor": {"dtype": "DT_FLOAT", "tensorShape": {"dim": [{"size": "128"}]}}}, "dtype": {"type": "DT_FLOAT"}}}, {"name": "StatefulPartitionedCall/Transformer_encoder/batch_normalization_4/batchnorm/mul", "op": "Const", "attr": {"dtype": {"type": "DT_FLOAT"}, "value": {"tensor": {"dtype": "DT_FLOAT", "tensorShape": {"dim": [{"size": "128"}]}}}}}, {"name": "StatefulPartitionedCall/Transformer_encoder/batch_normalization_4/batchnorm/sub", "op": "Const", "attr": {"value": {"tensor": {"dtype": "DT_FLOAT", "tensorShape": {"dim": [{"size": "128"}]}}}, "dtype": {"type": "DT_FLOAT"}}}, {"name": "StatefulPartitionedCall/Transformer_encoder/conv1d_5/Conv1D/ExpandDims/dim", "op": "Const", "attr": {"value": {"tensor": {"dtype": "DT_INT32", "tensorShape": {}}}, "dtype": {"type": "DT_INT32"}}}, {"name": "StatefulPartitionedCall/Transformer_encoder/conv1d_5/Conv1D/ExpandDims_1", "op": "Const", "attr": {"dtype": {"type": "DT_FLOAT"}, "value": {"tensor": {"dtype": "DT_FLOAT", "tensorShape": {"dim": [{"size": "1"}, {"size": "5"}, {"size": "128"}, {"size": "128"}]}}}}}, {"name": "StatefulPartitionedCall/Transformer_encoder/conv1d_5/BiasAdd/ReadVariableOp", "op": "Const", "attr": {"value": {"tensor": {"dtype": "DT_FLOAT", "tensorShape": {"dim": [{"size": "128"}]}}}, "dtype": {"type": "DT_FLOAT"}}}, {"name": "StatefulPartitionedCall/Transformer_encoder/batch_normalization_5/batchnorm/mul", "op": "Const", "attr": {"value": {"tensor": {"dtype": "DT_FLOAT", "tensorShape": {"dim": [{"size": "128"}]}}}, "dtype": {"type": "DT_FLOAT"}}}, {"name": "StatefulPartitionedCall/Transformer_encoder/batch_normalization_5/batchnorm/sub", "op": "Const", "attr": {"dtype": {"type": "DT_FLOAT"}, "value": {"tensor": {"dtype": "DT_FLOAT", "tensorShape": {"dim": [{"size": "128"}]}}}}}, {"name": "StatefulPartitionedCall/Transformer_encoder/conv1d_6/Conv1D/ExpandDims/dim", "op": "Const", "attr": {"dtype": {"type": "DT_INT32"}, "value": {"tensor": {"dtype": "DT_INT32", "tensorShape": {}}}}}, {"name": "StatefulPartitionedCall/Transformer_encoder/conv1d_6/Conv1D/ExpandDims_1", "op": "Const", "attr": {"value": {"tensor": {"dtype": "DT_FLOAT", "tensorShape": {"dim": [{"size": "1"}, {"size": "5"}, {"size": "128"}, {"size": "128"}]}}}, "dtype": {"type": "DT_FLOAT"}}}, {"name": "StatefulPartitionedCall/Transformer_encoder/conv1d_6/BiasAdd/ReadVariableOp", "op": "Const", "attr": {"dtype": {"type": "DT_FLOAT"}, "value": {"tensor": {"dtype": "DT_FLOAT", "tensorShape": {"dim": [{"size": "128"}]}}}}}, {"name": "StatefulPartitionedCall/Transformer_encoder/batch_normalization_6/batchnorm/mul", "op": "Const", "attr": {"value": {"tensor": {"dtype": "DT_FLOAT", "tensorShape": {"dim": [{"size": "128"}]}}}, "dtype": {"type": "DT_FLOAT"}}}, {"name": "StatefulPartitionedCall/Transformer_encoder/batch_normalization_6/batchnorm/sub", "op": "Const", "attr": {"value": {"tensor": {"dtype": "DT_FLOAT", "tensorShape": {"dim": [{"size": "128"}]}}}, "dtype": {"type": "DT_FLOAT"}}}, {"name": "unknown", "op": "Const", "attr": {"value": {"tensor": {"dtype": "DT_FLOAT", "tensorShape": {"dim": [{"size": "15001"}, {"size": "100"}]}}}, "dtype": {"type": "DT_FLOAT"}}}, {"name": "StatefulPartitionedCall/Transformer_encoder/embedding_1/embedding_lookup/axis", "op": "Const", "attr": {"dtype": {"type": "DT_INT32"}, "value": {"tensor": {"dtype": "DT_INT32", "tensorShape": {}}}}}, {"name": "StatefulPartitionedCall/Transformer_encoder/conv1d_7/Conv1D/ExpandDims/dim", "op": "Const", "attr": {"value": {"tensor": {"dtype": "DT_INT32", "tensorShape": {}}}, "dtype": {"type": "DT_INT32"}}}, {"name": "StatefulPartitionedCall/Transformer_encoder/conv1d_7/Conv1D/ExpandDims_1", "op": "Const", "attr": {"dtype": {"type": "DT_FLOAT"}, "value": {"tensor": {"dtype": "DT_FLOAT", "tensorShape": {"dim": [{"size": "1"}, {"size": "5"}, {"size": "100"}, {"size": "128"}]}}}}}, {"name": "StatefulPartitionedCall/Transformer_encoder/conv1d_7/BiasAdd/ReadVariableOp", "op": "Const", "attr": {"value": {"tensor": {"dtype": "DT_FLOAT", "tensorShape": {"dim": [{"size": "128"}]}}}, "dtype": {"type": "DT_FLOAT"}}}, {"name": "StatefulPartitionedCall/Transformer_encoder/batch_normalization_7/batchnorm/mul", "op": "Const", "attr": {"dtype": {"type": "DT_FLOAT"}, "value": {"tensor": {"dtype": "DT_FLOAT", "tensorShape": {"dim": [{"size": "128"}]}}}}}, {"name": "StatefulPartitionedCall/Transformer_encoder/batch_normalization_7/batchnorm/sub", "op": "Const", "attr": {"value": {"tensor": {"dtype": "DT_FLOAT", "tensorShape": {"dim": [{"size": "128"}]}}}, "dtype": {"type": "DT_FLOAT"}}}, {"name": "StatefulPartitionedCall/Transformer_encoder/bidirectional_2/backward_LSTM_0/transpose/perm", "op": "Const", "attr": {"dtype": {"type": "DT_INT32"}, "value": {"tensor": {"dtype": "DT_INT32", "tensorShape": {"dim": [{"size": "3"}]}}}}}, {"name": "StatefulPartitionedCall/Transformer_encoder/bidirectional_2/backward_LSTM_0/ReverseV2/axis", "op": "Const", "attr": {"dtype": {"type": "DT_INT32"}, "value": {"tensor": {"dtype": "DT_INT32", "tensorShape": {"dim": [{"size": "1"}]}}}}}, {"name": "StatefulPartitionedCall/Transformer_encoder/bidirectional_2/backward_LSTM_0/TensorArrayUnstack/TensorListFromTensor/element_shape", "op": "Const", "attr": {"dtype": {"type": "DT_INT32"}, "value": {"tensor": {"dtype": "DT_INT32", "tensorShape": {"dim": [{"size": "2"}]}}}}}, {"name": "StatefulPartitionedCall/Transformer_encoder/bidirectional_2/backward_LSTM_0/TensorArrayV2Stack/TensorListStack/element_shape", "op": "Const", "attr": {"value": {"tensor": {"dtype": "DT_INT32", "tensorShape": {"dim": [{"size": "2"}]}}}, "dtype": {"type": "DT_INT32"}}}, {"name": "StatefulPartitionedCall/Transformer_encoder/bidirectional_2/backward_LSTM_0/transpose_1/perm", "op": "Const", "attr": {"dtype": {"type": "DT_INT32"}, "value": {"tensor": {"dtype": "DT_INT32", "tensorShape": {"dim": [{"size": "3"}]}}}}}, {"name": "StatefulPartitionedCall/Transformer_encoder/bidirectional_2/ReverseV2/axis", "op": "Const", "attr": {"value": {"tensor": {"dtype": "DT_INT32", "tensorShape": {"dim": [{"size": "1"}]}}}, "dtype": {"type": "DT_INT32"}}}, {"name": "StatefulPartitionedCall/Transformer_encoder/bidirectional_2/concat/axis", "op": "Const", "attr": {"dtype": {"type": "DT_INT32"}, "value": {"tensor": {"dtype": "DT_INT32", "tensorShape": {}}}}}, {"name": "StatefulPartitionedCall/Transformer_encoder/bidirectional_3/backward_LSTM_1/transpose/perm", "op": "Const", "attr": {"value": {"tensor": {"dtype": "DT_INT32", "tensorShape": {"dim": [{"size": "3"}]}}}, "dtype": {"type": "DT_INT32"}}}, {"name": "StatefulPartitionedCall/Transformer_encoder/bidirectional_3/backward_LSTM_1/ReverseV2/axis", "op": "Const", "attr": {"value": {"tensor": {"dtype": "DT_INT32", "tensorShape": {"dim": [{"size": "1"}]}}}, "dtype": {"type": "DT_INT32"}}}, {"name": "StatefulPartitionedCall/Transformer_encoder/bidirectional_3/backward_LSTM_1/TensorArrayUnstack/TensorListFromTensor/element_shape", "op": "Const", "attr": {"value": {"tensor": {"dtype": "DT_INT32", "tensorShape": {"dim": [{"size": "2"}]}}}, "dtype": {"type": "DT_INT32"}}}, {"name": "StatefulPartitionedCall/Transformer_encoder/bidirectional_3/backward_LSTM_1/TensorArrayV2Stack/TensorListStack/element_shape", "op": "Const", "attr": {"dtype": {"type": "DT_INT32"}, "value": {"tensor": {"dtype": "DT_INT32", "tensorShape": {"dim": [{"size": "2"}]}}}}}, {"name": "StatefulPartitionedCall/Transformer_encoder/bidirectional_3/backward_LSTM_1/transpose_1/perm", "op": "Const", "attr": {"value": {"tensor": {"dtype": "DT_INT32", "tensorShape": {"dim": [{"size": "3"}]}}}, "dtype": {"type": "DT_INT32"}}}, {"name": "StatefulPartitionedCall/Transformer_encoder/bidirectional_3/ReverseV2/axis", "op": "Const", "attr": {"dtype": {"type": "DT_INT32"}, "value": {"tensor": {"dtype": "DT_INT32", "tensorShape": {"dim": [{"size": "1"}]}}}}}, {"name": "StatefulPartitionedCall/Transformer_encoder/bidirectional_3/concat/axis", "op": "Const", "attr": {"dtype": {"type": "DT_INT32"}, "value": {"tensor": {"dtype": "DT_INT32", "tensorShape": {}}}}}, {"name": "StatefulPartitionedCall/Transformer_encoder/bidirectional_4/forward_LSTM_2/transpose/perm", "op": "Const", "attr": {"value": {"tensor": {"dtype": "DT_INT32", "tensorShape": {"dim": [{"size": "3"}]}}}, "dtype": {"type": "DT_INT32"}}}, {"name": "StatefulPartitionedCall/Transformer_encoder/bidirectional_4/forward_LSTM_2/TensorArrayUnstack/TensorListFromTensor/element_shape", "op": "Const", "attr": {"dtype": {"type": "DT_INT32"}, "value": {"tensor": {"dtype": "DT_INT32", "tensorShape": {"dim": [{"size": "2"}]}}}}}, {"name": "StatefulPartitionedCall/Transformer_encoder/bidirectional_4/forward_LSTM_2/TensorArrayV2_1/element_shape", "op": "Const", "attr": {"value": {"tensor": {"dtype": "DT_INT32", "tensorShape": {"dim": [{"size": "2"}]}}}, "dtype": {"type": "DT_INT32"}}}, {"name": "StatefulPartitionedCall/Transformer_encoder/bidirectional_4/forward_LSTM_2/TensorArrayV2_1/num_elements", "op": "Const", "attr": {"dtype": {"type": "DT_INT32"}, "value": {"tensor": {"dtype": "DT_INT32", "tensorShape": {}}}}}, {"name": "input_layer", "op": "Placeholder", "attr": {"shape": {"shape": {"dim": [{"size": "-1"}, {"size": "100"}]}}, "dtype": {"type": "DT_INT32"}}}, {"name": "StatefulPartitionedCall/Transformer_encoder/bidirectional_4/backward_LSTM_2/TensorArrayV2_1", "op": "TensorListReserve", "input": ["StatefulPartitionedCall/Transformer_encoder/bidirectional_4/backward_LSTM_2/TensorArrayV2_1/element_shape", "StatefulPartitionedCall/Transformer_encoder/bidirectional_4/backward_LSTM_2/TensorArrayV2_1/num_elements"], "attr": {"_has_manual_control_dependencies": {"b": true}, "shape_type": {"type": "DT_INT32"}, "element_dtype": {"type": "DT_FLOAT"}}, "experimentalType": {"typeId": "TFT_PRODUCT", "args": [{"typeId": "TFT_ARRAY", "args": [{"typeId": "TFT_TENSOR", "args": [{"typeId": "TFT_FLOAT"}]}]}]}}, {"name": "StatefulPartitionedCall/Transformer_encoder/bidirectional_4/forward_LSTM_2/TensorArrayV2_1", "op": "TensorListReserve", "input": ["StatefulPartitionedCall/Transformer_encoder/bidirectional_4/forward_LSTM_2/TensorArrayV2_1/element_shape", "StatefulPartitionedCall/Transformer_encoder/bidirectional_4/forward_LSTM_2/TensorArrayV2_1/num_elements"], "attr": {"shape_type": {"type": "DT_INT32"}, "_has_manual_control_dependencies": {"b": true}, "element_dtype": {"type": "DT_FLOAT"}}, "experimentalType": {"typeId": "TFT_PRODUCT", "args": [{"typeId": "TFT_ARRAY", "args": [{"typeId": "TFT_TENSOR", "args": [{"typeId": "TFT_FLOAT"}]}]}]}}, {"name": "StatefulPartitionedCall/Transformer_encoder/embedding_1/embedding_lookup", "op": "GatherV2", "input": ["unknown", "input_layer", "StatefulPartitionedCall/Transformer_encoder/embedding_1/embedding_lookup/axis"], "attr": {"batch_dims": {"i": "0"}, "Taxis": {"type": "DT_INT32"}, "_has_manual_control_dependencies": {"b": true}, "Tparams": {"type": "DT_FLOAT"}, "Tindices": {"type": "DT_INT32"}}}, {"name": "StatefulPartitionedCall/Transformer_encoder/conv1d_4/Conv1D/ExpandDims", "op": "ExpandDims", "input": ["StatefulPartitionedCall/Transformer_encoder/embedding_1/embedding_lookup", "StatefulPartitionedCall/Transformer_encoder/conv1d_4/Conv1D/ExpandDims/dim"], "attr": {"T": {"type": "DT_FLOAT"}, "Tdim": {"type": "DT_INT32"}}}, {"name": "StatefulPartitionedCall/Transformer_encoder/conv1d_7/Conv1D/ExpandDims", "op": "ExpandDims", "input": ["StatefulPartitionedCall/Transformer_encoder/embedding_1/embedding_lookup", "StatefulPartitionedCall/Transformer_encoder/conv1d_7/Conv1D/ExpandDims/dim"], "attr": {"T": {"type": "DT_FLOAT"}, "Tdim": {"type": "DT_INT32"}}}, {"name": "StatefulPartitionedCall/Transformer_encoder/conv1d_4/Conv1D", "op": "_FusedConv2D", "input": ["StatefulPartitionedCall/Transformer_encoder/conv1d_4/Conv1D/ExpandDims", "StatefulPartitionedCall/Transformer_encoder/conv1d_4/Conv1D/ExpandDims_1", "StatefulPartitionedCall/Transformer_encoder/conv1d_4/BiasAdd/ReadVariableOp"], "device": "/device:CPU:0", "attr": {"num_args": {"i": "1"}, "num_host_args": {"i": "0"}, "dilations": {"list": {"i": ["1", "1", "1", "1"]}}, "padding": {"s": "U0FNRQ=="}, "filter_format": {"s": "SFdJTw=="}, "leakyrelu_alpha": {"f": 0.2}, "data_format": {"s": "TkhXQw=="}, "T": {"type": "DT_FLOAT"}, "TArgs": {"list": {"type": ["DT_FLOAT"]}}, "fused_ops": {"list": {"s": ["Qmlhc0FkZA=="]}}, "explicit_paddings": {"list": {}}, "use_cudnn_on_gpu": {"b": true}, "strides": {"list": {"i": ["1", "1", "1", "1"]}}, "epsilon": {"f": 0.0}}}, {"name": "StatefulPartitionedCall/Transformer_encoder/conv1d_7/Conv1D", "op": "_FusedConv2D", "input": ["StatefulPartitionedCall/Transformer_encoder/conv1d_7/Conv1D/ExpandDims", "StatefulPartitionedCall/Transformer_encoder/conv1d_7/Conv1D/ExpandDims_1", "StatefulPartitionedCall/Transformer_encoder/conv1d_7/BiasAdd/ReadVariableOp"], "device": "/device:CPU:0", "attr": {"filter_format": {"s": "SFdJTw=="}, "TArgs": {"list": {"type": ["DT_FLOAT"]}}, "leakyrelu_alpha": {"f": 0.2}, "dilations": {"list": {"i": ["1", "1", "1", "1"]}}, "use_cudnn_on_gpu": {"b": true}, "strides": {"list": {"i": ["1", "1", "1", "1"]}}, "epsilon": {"f": 0.0}, "T": {"type": "DT_FLOAT"}, "num_host_args": {"i": "0"}, "explicit_paddings": {"list": {}}, "num_args": {"i": "1"}, "fused_ops": {"list": {"s": ["Qmlhc0FkZA=="]}}, "data_format": {"s": "TkhXQw=="}, "padding": {"s": "U0FNRQ=="}}}, {"name": "StatefulPartitionedCall/Transformer_encoder/conv1d_4/BiasAdd", "op": "Squeeze", "input": ["StatefulPartitionedCall/Transformer_encoder/conv1d_4/Conv1D"], "attr": {"T": {"type": "DT_FLOAT"}, "squeeze_dims": {"list": {"i": ["-3"]}}}}, {"name": "StatefulPartitionedCall/Transformer_encoder/conv1d_7/BiasAdd", "op": "Squeeze", "input": ["StatefulPartitionedCall/Transformer_encoder/conv1d_7/Conv1D"], "attr": {"T": {"type": "DT_FLOAT"}, "squeeze_dims": {"list": {"i": ["-3"]}}}}, {"name": "StatefulPartitionedCall/Transformer_encoder/batch_normalization_4/batchnorm/mul_1", "op": "Mul", "input": ["StatefulPartitionedCall/Transformer_encoder/conv1d_4/BiasAdd", "StatefulPartitionedCall/Transformer_encoder/batch_normalization_4/batchnorm/mul"], "attr": {"T": {"type": "DT_FLOAT"}}}, {"name": "StatefulPartitionedCall/Transformer_encoder/batch_normalization_7/batchnorm/mul_1", "op": "Mul", "input": ["StatefulPartitionedCall/Transformer_encoder/conv1d_7/BiasAdd", "StatefulPartitionedCall/Transformer_encoder/batch_normalization_7/batchnorm/mul"], "attr": {"T": {"type": "DT_FLOAT"}}}, {"name": "StatefulPartitionedCall/Transformer_encoder/batch_normalization_4/batchnorm/add_1", "op": "AddV2", "input": ["StatefulPartitionedCall/Transformer_encoder/batch_normalization_4/batchnorm/mul_1", "StatefulPartitionedCall/Transformer_encoder/batch_normalization_4/batchnorm/sub"], "attr": {"T": {"type": "DT_FLOAT"}}}, {"name": "StatefulPartitionedCall/Transformer_encoder/batch_normalization_7/batchnorm/add_1", "op": "AddV2", "input": ["StatefulPartitionedCall/Transformer_encoder/batch_normalization_7/batchnorm/mul_1", "StatefulPartitionedCall/Transformer_encoder/batch_normalization_7/batchnorm/sub"], "attr": {"T": {"type": "DT_FLOAT"}}}, {"name": "StatefulPartitionedCall/Transformer_encoder/activation_3/Relu", "op": "Relu", "input": ["StatefulPartitionedCall/Transformer_encoder/batch_normalization_4/batchnorm/add_1"], "attr": {"T": {"type": "DT_FLOAT"}}}, {"name": "StatefulPartitionedCall/Transformer_encoder/conv1d_5/Conv1D/ExpandDims", "op": "ExpandDims", "input": ["StatefulPartitionedCall/Transformer_encoder/activation_3/Relu", "StatefulPartitionedCall/Transformer_encoder/conv1d_5/Conv1D/ExpandDims/dim"], "attr": {"T": {"type": "DT_FLOAT"}, "Tdim": {"type": "DT_INT32"}}}, {"name": "StatefulPartitionedCall/Transformer_encoder/conv1d_5/Conv1D", "op": "_FusedConv2D", "input": ["StatefulPartitionedCall/Transformer_encoder/conv1d_5/Conv1D/ExpandDims", "StatefulPartitionedCall/Transformer_encoder/conv1d_5/Conv1D/ExpandDims_1", "StatefulPartitionedCall/Transformer_encoder/conv1d_5/BiasAdd/ReadVariableOp"], "device": "/device:CPU:0", "attr": {"fused_ops": {"list": {"s": ["Qmlhc0FkZA=="]}}, "use_cudnn_on_gpu": {"b": true}, "TArgs": {"list": {"type": ["DT_FLOAT"]}}, "num_host_args": {"i": "0"}, "strides": {"list": {"i": ["1", "1", "1", "1"]}}, "filter_format": {"s": "SFdJTw=="}, "explicit_paddings": {"list": {}}, "epsilon": {"f": 0.0}, "num_args": {"i": "1"}, "dilations": {"list": {"i": ["1", "1", "1", "1"]}}, "leakyrelu_alpha": {"f": 0.2}, "data_format": {"s": "TkhXQw=="}, "padding": {"s": "U0FNRQ=="}, "T": {"type": "DT_FLOAT"}}}, {"name": "StatefulPartitionedCall/Transformer_encoder/conv1d_5/BiasAdd", "op": "Squeeze", "input": ["StatefulPartitionedCall/Transformer_encoder/conv1d_5/Conv1D"], "attr": {"squeeze_dims": {"list": {"i": ["-3"]}}, "T": {"type": "DT_FLOAT"}}}, {"name": "StatefulPartitionedCall/Transformer_encoder/batch_normalization_5/batchnorm/mul_1", "op": "Mul", "input": ["StatefulPartitionedCall/Transformer_encoder/conv1d_5/BiasAdd", "StatefulPartitionedCall/Transformer_encoder/batch_normalization_5/batchnorm/mul"], "attr": {"T": {"type": "DT_FLOAT"}}}, {"name": "StatefulPartitionedCall/Transformer_encoder/batch_normalization_5/batchnorm/add_1", "op": "AddV2", "input": ["StatefulPartitionedCall/Transformer_encoder/batch_normalization_5/batchnorm/mul_1", "StatefulPartitionedCall/Transformer_encoder/batch_normalization_5/batchnorm/sub"], "attr": {"T": {"type": "DT_FLOAT"}}}, {"name": "StatefulPartitionedCall/Transformer_encoder/activation_4/Relu", "op": "Relu", "input": ["StatefulPartitionedCall/Transformer_encoder/batch_normalization_5/batchnorm/add_1"], "attr": {"T": {"type": "DT_FLOAT"}}}, {"name": "StatefulPartitionedCall/Transformer_encoder/conv1d_6/Conv1D/ExpandDims", "op": "ExpandDims", "input": ["StatefulPartitionedCall/Transformer_encoder/activation_4/Relu", "StatefulPartitionedCall/Transformer_encoder/conv1d_6/Conv1D/ExpandDims/dim"], "attr": {"T": {"type": "DT_FLOAT"}, "Tdim": {"type": "DT_INT32"}}}, {"name": "StatefulPartitionedCall/Transformer_encoder/conv1d_6/Conv1D", "op": "_FusedConv2D", "input": ["StatefulPartitionedCall/Transformer_encoder/conv1d_6/Conv1D/ExpandDims", "StatefulPartitionedCall/Transformer_encoder/conv1d_6/Conv1D/ExpandDims_1", "StatefulPartitionedCall/Transformer_encoder/conv1d_6/BiasAdd/ReadVariableOp"], "device": "/device:CPU:0", "attr": {"explicit_paddings": {"list": {}}, "data_format": {"s": "TkhXQw=="}, "TArgs": {"list": {"type": ["DT_FLOAT"]}}, "T": {"type": "DT_FLOAT"}, "fused_ops": {"list": {"s": ["Qmlhc0FkZA=="]}}, "strides": {"list": {"i": ["1", "1", "1", "1"]}}, "use_cudnn_on_gpu": {"b": true}, "dilations": {"list": {"i": ["1", "1", "1", "1"]}}, "num_args": {"i": "1"}, "leakyrelu_alpha": {"f": 0.2}, "filter_format": {"s": "SFdJTw=="}, "num_host_args": {"i": "0"}, "epsilon": {"f": 0.0}, "padding": {"s": "U0FNRQ=="}}}, {"name": "StatefulPartitionedCall/Transformer_encoder/conv1d_6/BiasAdd", "op": "Squeeze", "input": ["StatefulPartitionedCall/Transformer_encoder/conv1d_6/Conv1D"], "attr": {"squeeze_dims": {"list": {"i": ["-3"]}}, "T": {"type": "DT_FLOAT"}}}, {"name": "StatefulPartitionedCall/Transformer_encoder/batch_normalization_6/batchnorm/mul_1", "op": "Mul", "input": ["StatefulPartitionedCall/Transformer_encoder/conv1d_6/BiasAdd", "StatefulPartitionedCall/Transformer_encoder/batch_normalization_6/batchnorm/mul"], "attr": {"T": {"type": "DT_FLOAT"}}}, {"name": "StatefulPartitionedCall/Transformer_encoder/batch_normalization_6/batchnorm/add_1", "op": "AddV2", "input": ["StatefulPartitionedCall/Transformer_encoder/batch_normalization_6/batchnorm/mul_1", "StatefulPartitionedCall/Transformer_encoder/batch_normalization_6/batchnorm/sub"], "attr": {"T": {"type": "DT_FLOAT"}}}, {"name": "StatefulPartitionedCall/Transformer_encoder/add_1/add", "op": "AddV2", "input": ["StatefulPartitionedCall/Transformer_encoder/batch_normalization_6/batchnorm/add_1", "StatefulPartitionedCall/Transformer_encoder/batch_normalization_7/batchnorm/add_1"], "attr": {"T": {"type": "DT_FLOAT"}}}, {"name": "StatefulPartitionedCall/Transformer_encoder/activation_5/Relu", "op": "Relu", "input": ["StatefulPartitionedCall/Transformer_encoder/add_1/add"], "attr": {"T": {"type": "DT_FLOAT"}}}, {"name": "StatefulPartitionedCall/Transformer_encoder/bidirectional_2/forward_LSTM_0/Shape", "op": "Shape", "input": ["StatefulPartitionedCall/Transformer_encoder/activation_5/Relu"], "attr": {"out_type": {"type": "DT_INT32"}, "T": {"type": "DT_FLOAT"}}, "experimentalType": {"typeId": "TFT_PRODUCT", "args": [{"typeId": "TFT_SHAPE_TENSOR", "args": [{"typeId": "TFT_INT32"}]}]}}, {"name": "StatefulPartitionedCall/Transformer_encoder/bidirectional_2/forward_LSTM_0/transpose", "op": "Transpose", "input": ["StatefulPartitionedCall/Transformer_encoder/activation_5/Relu", "StatefulPartitionedCall/Transformer_encoder/bidirectional_2/forward_LSTM_0/transpose/perm"], "attr": {"T": {"type": "DT_FLOAT"}, "Tperm": {"type": "DT_INT32"}}}, {"name": "StatefulPartitionedCall/Transformer_encoder/bidirectional_2/backward_LSTM_0/Shape", "op": "Shape", "input": ["StatefulPartitionedCall/Transformer_encoder/activation_5/Relu"], "attr": {"out_type": {"type": "DT_INT32"}, "T": {"type": "DT_FLOAT"}}, "experimentalType": {"typeId": "TFT_PRODUCT", "args": [{"typeId": "TFT_SHAPE_TENSOR", "args": [{"typeId": "TFT_INT32"}]}]}}, {"name": "StatefulPartitionedCall/Transformer_encoder/bidirectional_2/backward_LSTM_0/transpose", "op": "Transpose", "input": ["StatefulPartitionedCall/Transformer_encoder/activation_5/Relu", "StatefulPartitionedCall/Transformer_encoder/bidirectional_2/backward_LSTM_0/transpose/perm"], "attr": {"T": {"type": "DT_FLOAT"}, "Tperm": {"type": "DT_INT32"}}}, {"name": "StatefulPartitionedCall/Transformer_encoder/bidirectional_2/forward_LSTM_0/strided_slice", "op": "StridedSlice", "input": ["StatefulPartitionedCall/Transformer_encoder/bidirectional_2/forward_LSTM_0/Shape", "StatefulPartitionedCall/Transformer_encoder/bidirectional_2/forward_LSTM_0/strided_slice/stack", "StatefulPartitionedCall/Transformer_encoder/bidirectional_2/forward_LSTM_0/strided_slice/stack_1", "StatefulPartitionedCall/Transformer_encoder/bidirectional_2/forward_LSTM_0/strided_slice/stack_2"], "attr": {"ellipsis_mask": {"i": "0"}, "begin_mask": {"i": "0"}, "shrink_axis_mask": {"i": "1"}, "new_axis_mask": {"i": "0"}, "T": {"type": "DT_INT32"}, "Index": {"type": "DT_INT32"}, "end_mask": {"i": "0"}}}, {"name": "StatefulPartitionedCall/Transformer_encoder/bidirectional_2/forward_LSTM_0/Shape_1", "op": "Shape", "input": ["StatefulPartitionedCall/Transformer_encoder/bidirectional_2/forward_LSTM_0/transpose"], "attr": {"out_type": {"type": "DT_INT32"}, "T": {"type": "DT_FLOAT"}}, "experimentalType": {"typeId": "TFT_PRODUCT", "args": [{"typeId": "TFT_SHAPE_TENSOR", "args": [{"typeId": "TFT_INT32"}]}]}}, {"name": "StatefulPartitionedCall/Transformer_encoder/bidirectional_2/forward_LSTM_0/TensorArrayUnstack/TensorListFromTensor", "op": "TensorListFromTensor", "input": ["StatefulPartitionedCall/Transformer_encoder/bidirectional_2/forward_LSTM_0/transpose", "StatefulPartitionedCall/Transformer_encoder/bidirectional_2/forward_LSTM_0/TensorArrayUnstack/TensorListFromTensor/element_shape"], "attr": {"shape_type": {"type": "DT_INT32"}, "element_dtype": {"type": "DT_FLOAT"}}, "experimentalType": {"typeId": "TFT_PRODUCT", "args": [{"typeId": "TFT_ARRAY", "args": [{"typeId": "TFT_TENSOR", "args": [{"typeId": "TFT_FLOAT"}]}]}]}}, {"name": "StatefulPartitionedCall/Transformer_encoder/bidirectional_2/backward_LSTM_0/strided_slice", "op": "StridedSlice", "input": ["StatefulPartitionedCall/Transformer_encoder/bidirectional_2/backward_LSTM_0/Shape", "StatefulPartitionedCall/Transformer_encoder/bidirectional_2/backward_LSTM_0/strided_slice/stack", "StatefulPartitionedCall/Transformer_encoder/bidirectional_2/backward_LSTM_0/strided_slice/stack_1", "StatefulPartitionedCall/Transformer_encoder/bidirectional_2/backward_LSTM_0/strided_slice/stack_2"], "attr": {"end_mask": {"i": "0"}, "Index": {"type": "DT_INT32"}, "begin_mask": {"i": "0"}, "ellipsis_mask": {"i": "0"}, "new_axis_mask": {"i": "0"}, "shrink_axis_mask": {"i": "1"}, "T": {"type": "DT_INT32"}}}, {"name": "StatefulPartitionedCall/Transformer_encoder/bidirectional_2/backward_LSTM_0/Shape_1", "op": "Shape", "input": ["StatefulPartitionedCall/Transformer_encoder/bidirectional_2/backward_LSTM_0/transpose"], "attr": {"out_type": {"type": "DT_INT32"}, "T": {"type": "DT_FLOAT"}}, "experimentalType": {"typeId": "TFT_PRODUCT", "args": [{"typeId": "TFT_SHAPE_TENSOR", "args": [{"typeId": "TFT_INT32"}]}]}}, {"name": "StatefulPartitionedCall/Transformer_encoder/bidirectional_2/backward_LSTM_0/ReverseV2", "op": "ReverseV2", "input": ["StatefulPartitionedCall/Transformer_encoder/bidirectional_2/backward_LSTM_0/transpose", "StatefulPartitionedCall/Transformer_encoder/bidirectional_2/backward_LSTM_0/ReverseV2/axis"], "attr": {"Tidx": {"type": "DT_INT32"}, "T": {"type": "DT_FLOAT"}}}, {"name": "StatefulPartitionedCall/Transformer_encoder/bidirectional_2/forward_LSTM_0/zeros_1/packed", "op": "Pack", "input": ["StatefulPartitionedCall/Transformer_encoder/bidirectional_2/forward_LSTM_0/strided_slice", "StatefulPartitionedCall/Transformer_encoder/bidirectional_2/forward_LSTM_0/zeros_1/packed/1"], "attr": {"T": {"type": "DT_INT32"}, "axis": {"i": "0"}, "N": {"i": "2"}}}, {"name": "StatefulPartitionedCall/Transformer_encoder/bidirectional_2/forward_LSTM_0/zeros/packed", "op": "Pack", "input": ["StatefulPartitionedCall/Transformer_encoder/bidirectional_2/forward_LSTM_0/strided_slice", "StatefulPartitionedCall/Transformer_encoder/bidirectional_2/forward_LSTM_0/zeros/packed/1"], "attr": {"T": {"type": "DT_INT32"}, "axis": {"i": "0"}, "N": {"i": "2"}}}, {"name": "StatefulPartitionedCall/Transformer_encoder/bidirectional_2/forward_LSTM_0/strided_slice_1", "op": "StridedSlice", "input": ["StatefulPartitionedCall/Transformer_encoder/bidirectional_2/forward_LSTM_0/Shape_1", "StatefulPartitionedCall/Transformer_encoder/bidirectional_2/forward_LSTM_0/strided_slice_1/stack", "StatefulPartitionedCall/Transformer_encoder/bidirectional_2/forward_LSTM_0/strided_slice_1/stack_1", "StatefulPartitionedCall/Transformer_encoder/bidirectional_2/forward_LSTM_0/strided_slice_1/stack_2"], "attr": {"new_axis_mask": {"i": "0"}, "begin_mask": {"i": "0"}, "shrink_axis_mask": {"i": "1"}, "ellipsis_mask": {"i": "0"}, "T": {"type": "DT_INT32"}, "Index": {"type": "DT_INT32"}, "_has_manual_control_dependencies": {"b": true}, "end_mask": {"i": "0"}}}, {"name": "StatefulPartitionedCall/Transformer_encoder/bidirectional_2/backward_LSTM_0/zeros_1/packed", "op": "Pack", "input": ["StatefulPartitionedCall/Transformer_encoder/bidirectional_2/backward_LSTM_0/strided_slice", "StatefulPartitionedCall/Transformer_encoder/bidirectional_2/backward_LSTM_0/zeros_1/packed/1"], "attr": {"T": {"type": "DT_INT32"}, "N": {"i": "2"}, "axis": {"i": "0"}}}, {"name": "StatefulPartitionedCall/Transformer_encoder/bidirectional_2/backward_LSTM_0/zeros/packed", "op": "Pack", "input": ["StatefulPartitionedCall/Transformer_encoder/bidirectional_2/backward_LSTM_0/strided_slice", "StatefulPartitionedCall/Transformer_encoder/bidirectional_2/backward_LSTM_0/zeros/packed/1"], "attr": {"axis": {"i": "0"}, "N": {"i": "2"}, "T": {"type": "DT_INT32"}}}, {"name": "StatefulPartitionedCall/Transformer_encoder/bidirectional_2/backward_LSTM_0/strided_slice_1", "op": "StridedSlice", "input": ["StatefulPartitionedCall/Transformer_encoder/bidirectional_2/backward_LSTM_0/Shape_1", "StatefulPartitionedCall/Transformer_encoder/bidirectional_2/backward_LSTM_0/strided_slice_1/stack", "StatefulPartitionedCall/Transformer_encoder/bidirectional_2/backward_LSTM_0/strided_slice_1/stack_1", "StatefulPartitionedCall/Transformer_encoder/bidirectional_2/backward_LSTM_0/strided_slice_1/stack_2"], "attr": {"T": {"type": "DT_INT32"}, "ellipsis_mask": {"i": "0"}, "new_axis_mask": {"i": "0"}, "begin_mask": {"i": "0"}, "shrink_axis_mask": {"i": "1"}, "Index": {"type": "DT_INT32"}, "_has_manual_control_dependencies": {"b": true}, "end_mask": {"i": "0"}}}, {"name": "StatefulPartitionedCall/Transformer_encoder/bidirectional_2/backward_LSTM_0/TensorArrayUnstack/TensorListFromTensor", "op": "TensorListFromTensor", "input": ["StatefulPartitionedCall/Transformer_encoder/bidirectional_2/backward_LSTM_0/ReverseV2", "StatefulPartitionedCall/Transformer_encoder/bidirectional_2/backward_LSTM_0/TensorArrayUnstack/TensorListFromTensor/element_shape"], "attr": {"shape_type": {"type": "DT_INT32"}, "element_dtype": {"type": "DT_FLOAT"}, "_has_manual_control_dependencies": {"b": true}}, "experimentalType": {"typeId": "TFT_PRODUCT", "args": [{"typeId": "TFT_ARRAY", "args": [{"typeId": "TFT_TENSOR", "args": [{"typeId": "TFT_FLOAT"}]}]}]}}, {"name": "StatefulPartitionedCall/Transformer_encoder/bidirectional_2/forward_LSTM_0/zeros_1", "op": "Fill", "input": ["StatefulPartitionedCall/Transformer_encoder/bidirectional_2/forward_LSTM_0/zeros_1/packed", "StatefulPartitionedCall/Transformer_encoder/bidirectional_2/forward_LSTM_0/zeros_1/Const"], "attr": {"T": {"type": "DT_FLOAT"}, "_has_manual_control_dependencies": {"b": true}, "index_type": {"type": "DT_INT32"}}}, {"name": "StatefulPartitionedCall/Transformer_encoder/bidirectional_2/forward_LSTM_0/zeros", "op": "Fill", "input": ["StatefulPartitionedCall/Transformer_encoder/bidirectional_2/forward_LSTM_0/zeros/packed", "StatefulPartitionedCall/Transformer_encoder/bidirectional_2/forward_LSTM_0/zeros/Const"], "attr": {"T": {"type": "DT_FLOAT"}, "_has_manual_control_dependencies": {"b": true}, "index_type": {"type": "DT_INT32"}}}, {"name": "StatefulPartitionedCall/Transformer_encoder/bidirectional_2/forward_LSTM_0/TensorArrayV2_1", "op": "TensorListReserve", "input": ["StatefulPartitionedCall/Transformer_encoder/bidirectional_2/forward_LSTM_0/TensorArrayV2_1/element_shape", "StatefulPartitionedCall/Transformer_encoder/bidirectional_2/forward_LSTM_0/strided_slice_1"], "attr": {"shape_type": {"type": "DT_INT32"}, "_has_manual_control_dependencies": {"b": true}, "element_dtype": {"type": "DT_FLOAT"}}, "experimentalType": {"typeId": "TFT_PRODUCT", "args": [{"typeId": "TFT_ARRAY", "args": [{"typeId": "TFT_TENSOR", "args": [{"typeId": "TFT_FLOAT"}]}]}]}}, {"name": "StatefulPartitionedCall/Transformer_encoder/bidirectional_2/backward_LSTM_0/zeros_1", "op": "Fill", "input": ["StatefulPartitionedCall/Transformer_encoder/bidirectional_2/backward_LSTM_0/zeros_1/packed", "StatefulPartitionedCall/Transformer_encoder/bidirectional_2/backward_LSTM_0/zeros_1/Const"], "attr": {"T": {"type": "DT_FLOAT"}, "index_type": {"type": "DT_INT32"}, "_has_manual_control_dependencies": {"b": true}}}, {"name": "StatefulPartitionedCall/Transformer_encoder/bidirectional_2/backward_LSTM_0/zeros", "op": "Fill", "input": ["StatefulPartitionedCall/Transformer_encoder/bidirectional_2/backward_LSTM_0/zeros/packed", "StatefulPartitionedCall/Transformer_encoder/bidirectional_2/backward_LSTM_0/zeros/Const"], "attr": {"_has_manual_control_dependencies": {"b": true}, "index_type": {"type": "DT_INT32"}, "T": {"type": "DT_FLOAT"}}}, {"name": "StatefulPartitionedCall/Transformer_encoder/bidirectional_2/backward_LSTM_0/TensorArrayV2_1", "op": "TensorListReserve", "input": ["StatefulPartitionedCall/Transformer_encoder/bidirectional_2/backward_LSTM_0/TensorArrayV2_1/element_shape", "StatefulPartitionedCall/Transformer_encoder/bidirectional_2/backward_LSTM_0/strided_slice_1"], "attr": {"_has_manual_control_dependencies": {"b": true}, "shape_type": {"type": "DT_INT32"}, "element_dtype": {"type": "DT_FLOAT"}}, "experimentalType": {"typeId": "TFT_PRODUCT", "args": [{"typeId": "TFT_ARRAY", "args": [{"typeId": "TFT_TENSOR", "args": [{"typeId": "TFT_FLOAT"}]}]}]}}, {"name": "StatefulPartitionedCall/Transformer_encoder/bidirectional_2/forward_LSTM_0/while/LoopControlInputs/_67", "op": "NoOp", "input": ["^StatefulPartitionedCall/Transformer_encoder/bidirectional_2/forward_LSTM_0/TensorArrayV2_1", "^StatefulPartitionedCall/Transformer_encoder/bidirectional_2/forward_LSTM_0/zeros_1", "^StatefulPartitionedCall/Transformer_encoder/bidirectional_2/forward_LSTM_0/zeros", "^StatefulPartitionedCall/Transformer_encoder/bidirectional_2/forward_LSTM_0/TensorArrayUnstack/TensorListFromTensor"], "attr": {"_has_manual_control_dependencies": {"b": true}}}, {"name": "StatefulPartitionedCall/Transformer_encoder/bidirectional_2/backward_LSTM_0/while/LoopControlInputs/_116", "op": "NoOp", "input": ["^StatefulPartitionedCall/Transformer_encoder/bidirectional_2/backward_LSTM_0/TensorArrayV2_1", "^StatefulPartitionedCall/Transformer_encoder/bidirectional_2/backward_LSTM_0/zeros_1", "^StatefulPartitionedCall/Transformer_encoder/bidirectional_2/backward_LSTM_0/zeros", "^StatefulPartitionedCall/Transformer_encoder/bidirectional_2/backward_LSTM_0/TensorArrayUnstack/TensorListFromTensor"], "attr": {"_has_manual_control_dependencies": {"b": true}}}, {"name": "StatefulPartitionedCall/Transformer_encoder/bidirectional_2/forward_LSTM_0/while/enter/_59", "op": "Enter", "input": ["StatefulPartitionedCall/Transformer_encoder/bidirectional_2/forward_LSTM_0/TensorArrayV2_1", "^StatefulPartitionedCall/Transformer_encoder/bidirectional_2/forward_LSTM_0/while/LoopControlInputs/_67"], "attr": {"parallel_iterations": {"i": "32"}, "frame_name": {"s": "U3RhdGVmdWxQYXJ0aXRpb25lZENhbGwvVHJhbnNmb3JtZXJfZW5jb2Rlci9iaWRpcmVjdGlvbmFsXzIvZm9yd2FyZF9MU1RNXzAvd2hpbGU="}, "is_constant": {"b": false}, "T": {"type": "DT_VARIANT"}}}, {"name": "StatefulPartitionedCall/Transformer_encoder/bidirectional_2/forward_LSTM_0/while/enter/_61", "op": "Enter", "input": ["StatefulPartitionedCall/Transformer_encoder/bidirectional_2/forward_LSTM_0/zeros_1", "^StatefulPartitionedCall/Transformer_encoder/bidirectional_2/forward_LSTM_0/while/LoopControlInputs/_67"], "attr": {"is_constant": {"b": false}, "frame_name": {"s": "U3RhdGVmdWxQYXJ0aXRpb25lZENhbGwvVHJhbnNmb3JtZXJfZW5jb2Rlci9iaWRpcmVjdGlvbmFsXzIvZm9yd2FyZF9MU1RNXzAvd2hpbGU="}, "T": {"type": "DT_FLOAT"}, "parallel_iterations": {"i": "32"}}}, {"name": "StatefulPartitionedCall/Transformer_encoder/bidirectional_2/forward_LSTM_0/while/enter/_62", "op": "Enter", "input": ["StatefulPartitionedCall/Transformer_encoder/bidirectional_2/forward_LSTM_0/strided_slice_1", "^StatefulPartitionedCall/Transformer_encoder/bidirectional_2/forward_LSTM_0/while/LoopControlInputs/_67"], "attr": {"is_constant": {"b": false}, "T": {"type": "DT_INT32"}, "parallel_iterations": {"i": "32"}, "frame_name": {"s": "U3RhdGVmdWxQYXJ0aXRpb25lZENhbGwvVHJhbnNmb3JtZXJfZW5jb2Rlci9iaWRpcmVjdGlvbmFsXzIvZm9yd2FyZF9MU1RNXzAvd2hpbGU="}}}, {"name": "StatefulPartitionedCall/Transformer_encoder/bidirectional_2/forward_LSTM_0/while/enter/_56", "op": "Enter", "input": ["StatefulPartitionedCall/Transformer_encoder/bidirectional_2/forward_LSTM_0/while/loop_counter", "^StatefulPartitionedCall/Transformer_encoder/bidirectional_2/forward_LSTM_0/while/LoopControlInputs/_67"], "attr": {"is_constant": {"b": false}, "T": {"type": "DT_INT32"}, "frame_name": {"s": "U3RhdGVmdWxQYXJ0aXRpb25lZENhbGwvVHJhbnNmb3JtZXJfZW5jb2Rlci9iaWRpcmVjdGlvbmFsXzIvZm9yd2FyZF9MU1RNXzAvd2hpbGU="}, "parallel_iterations": {"i": "32"}}}, {"name": "StatefulPartitionedCall/Transformer_encoder/bidirectional_2/forward_LSTM_0/while/enter/_57", "op": "Enter", "input": ["StatefulPartitionedCall/Transformer_encoder/bidirectional_2/forward_LSTM_0/while/maximum_iterations", "^StatefulPartitionedCall/Transformer_encoder/bidirectional_2/forward_LSTM_0/while/LoopControlInputs/_67"], "attr": {"T": {"type": "DT_INT32"}, "frame_name": {"s": "U3RhdGVmdWxQYXJ0aXRpb25lZENhbGwvVHJhbnNmb3JtZXJfZW5jb2Rlci9iaWRpcmVjdGlvbmFsXzIvZm9yd2FyZF9MU1RNXzAvd2hpbGU="}, "is_constant": {"b": false}, "parallel_iterations": {"i": "32"}}}, {"name": "StatefulPartitionedCall/Transformer_encoder/bidirectional_2/forward_LSTM_0/while/enter/_60", "op": "Enter", "input": ["StatefulPartitionedCall/Transformer_encoder/bidirectional_2/forward_LSTM_0/zeros", "^StatefulPartitionedCall/Transformer_encoder/bidirectional_2/forward_LSTM_0/while/LoopControlInputs/_67"], "attr": {"frame_name": {"s": "U3RhdGVmdWxQYXJ0aXRpb25lZENhbGwvVHJhbnNmb3JtZXJfZW5jb2Rlci9iaWRpcmVjdGlvbmFsXzIvZm9yd2FyZF9MU1RNXzAvd2hpbGU="}, "T": {"type": "DT_FLOAT"}, "is_constant": {"b": false}, "parallel_iterations": {"i": "32"}}}, {"name": "StatefulPartitionedCall/Transformer_encoder/bidirectional_2/forward_LSTM_0/while/enter/_63", "op": "Enter", "input": ["StatefulPartitionedCall/Transformer_encoder/bidirectional_2/forward_LSTM_0/TensorArrayUnstack/TensorListFromTensor", "^StatefulPartitionedCall/Transformer_encoder/bidirectional_2/forward_LSTM_0/while/LoopControlInputs/_67"], "attr": {"is_constant": {"b": false}, "frame_name": {"s": "U3RhdGVmdWxQYXJ0aXRpb25lZENhbGwvVHJhbnNmb3JtZXJfZW5jb2Rlci9iaWRpcmVjdGlvbmFsXzIvZm9yd2FyZF9MU1RNXzAvd2hpbGU="}, "T": {"type": "DT_VARIANT"}, "parallel_iterations": {"i": "32"}}}, {"name": "StatefulPartitionedCall/Transformer_encoder/bidirectional_2/forward_LSTM_0/while/enter/_58", "op": "Enter", "input": ["StatefulPartitionedCall/Transformer_encoder/bidirectional_2/forward_LSTM_0/time", "^StatefulPartitionedCall/Transformer_encoder/bidirectional_2/forward_LSTM_0/while/LoopControlInputs/_67"], "attr": {"is_constant": {"b": false}, "frame_name": {"s": "U3RhdGVmdWxQYXJ0aXRpb25lZENhbGwvVHJhbnNmb3JtZXJfZW5jb2Rlci9iaWRpcmVjdGlvbmFsXzIvZm9yd2FyZF9MU1RNXzAvd2hpbGU="}, "parallel_iterations": {"i": "32"}, "T": {"type": "DT_INT32"}}}, {"name": "StatefulPartitionedCall/Transformer_encoder/bidirectional_2/forward_LSTM_0/while/enter/_64", "op": "Enter", "input": ["Func/StatefulPartitionedCall/input/_26", "^StatefulPartitionedCall/Transformer_encoder/bidirectional_2/forward_LSTM_0/while/LoopControlInputs/_67"], "attr": {"frame_name": {"s": "U3RhdGVmdWxQYXJ0aXRpb25lZENhbGwvVHJhbnNmb3JtZXJfZW5jb2Rlci9iaWRpcmVjdGlvbmFsXzIvZm9yd2FyZF9MU1RNXzAvd2hpbGU="}, "is_constant": {"b": true}, "_has_manual_control_dependencies": {"b": true}, "T": {"type": "DT_FLOAT"}, "parallel_iterations": {"i": "32"}}}, {"name": "StatefulPartitionedCall/Transformer_encoder/bidirectional_2/forward_LSTM_0/while/enter/_65", "op": "Enter", "input": ["Func/StatefulPartitionedCall/input/_27", "^StatefulPartitionedCall/Transformer_encoder/bidirectional_2/forward_LSTM_0/while/LoopControlInputs/_67"], "attr": {"is_constant": {"b": true}, "frame_name": {"s": "U3RhdGVmdWxQYXJ0aXRpb25lZENhbGwvVHJhbnNmb3JtZXJfZW5jb2Rlci9iaWRpcmVjdGlvbmFsXzIvZm9yd2FyZF9MU1RNXzAvd2hpbGU="}, "T": {"type": "DT_FLOAT"}, "parallel_iterations": {"i": "32"}, "_has_manual_control_dependencies": {"b": true}}}, {"name": "StatefulPartitionedCall/Transformer_encoder/bidirectional_2/forward_LSTM_0/while/enter/_66", "op": "Enter", "input": ["Func/StatefulPartitionedCall/input/_28", "^StatefulPartitionedCall/Transformer_encoder/bidirectional_2/forward_LSTM_0/while/LoopControlInputs/_67"], "attr": {"T": {"type": "DT_FLOAT"}, "parallel_iterations": {"i": "32"}, "frame_name": {"s": "U3RhdGVmdWxQYXJ0aXRpb25lZENhbGwvVHJhbnNmb3JtZXJfZW5jb2Rlci9iaWRpcmVjdGlvbmFsXzIvZm9yd2FyZF9MU1RNXzAvd2hpbGU="}, "is_constant": {"b": true}, "_has_manual_control_dependencies": {"b": true}}}, {"name": "StatefulPartitionedCall/Transformer_encoder/bidirectional_2/backward_LSTM_0/while/enter/_108", "op": "Enter", "input": ["StatefulPartitionedCall/Transformer_encoder/bidirectional_2/backward_LSTM_0/TensorArrayV2_1", "^StatefulPartitionedCall/Transformer_encoder/bidirectional_2/backward_LSTM_0/while/LoopControlInputs/_116"], "attr": {"is_constant": {"b": false}, "parallel_iterations": {"i": "32"}, "T": {"type": "DT_VARIANT"}, "frame_name": {"s": "U3RhdGVmdWxQYXJ0aXRpb25lZENhbGwvVHJhbnNmb3JtZXJfZW5jb2Rlci9iaWRpcmVjdGlvbmFsXzIvYmFja3dhcmRfTFNUTV8wL3doaWxl"}}}, {"name": "StatefulPartitionedCall/Transformer_encoder/bidirectional_2/backward_LSTM_0/while/enter/_110", "op": "Enter", "input": ["StatefulPartitionedCall/Transformer_encoder/bidirectional_2/backward_LSTM_0/zeros_1", "^StatefulPartitionedCall/Transformer_encoder/bidirectional_2/backward_LSTM_0/while/LoopControlInputs/_116"], "attr": {"T": {"type": "DT_FLOAT"}, "is_constant": {"b": false}, "parallel_iterations": {"i": "32"}, "frame_name": {"s": "U3RhdGVmdWxQYXJ0aXRpb25lZENhbGwvVHJhbnNmb3JtZXJfZW5jb2Rlci9iaWRpcmVjdGlvbmFsXzIvYmFja3dhcmRfTFNUTV8wL3doaWxl"}}}, {"name": "StatefulPartitionedCall/Transformer_encoder/bidirectional_2/backward_LSTM_0/while/enter/_111", "op": "Enter", "input": ["StatefulPartitionedCall/Transformer_encoder/bidirectional_2/backward_LSTM_0/strided_slice_1", "^StatefulPartitionedCall/Transformer_encoder/bidirectional_2/backward_LSTM_0/while/LoopControlInputs/_116"], "attr": {"parallel_iterations": {"i": "32"}, "T": {"type": "DT_INT32"}, "is_constant": {"b": false}, "frame_name": {"s": "U3RhdGVmdWxQYXJ0aXRpb25lZENhbGwvVHJhbnNmb3JtZXJfZW5jb2Rlci9iaWRpcmVjdGlvbmFsXzIvYmFja3dhcmRfTFNUTV8wL3doaWxl"}}}, {"name": "StatefulPartitionedCall/Transformer_encoder/bidirectional_2/backward_LSTM_0/while/enter/_105", "op": "Enter", "input": ["StatefulPartitionedCall/Transformer_encoder/bidirectional_2/backward_LSTM_0/while/loop_counter", "^StatefulPartitionedCall/Transformer_encoder/bidirectional_2/backward_LSTM_0/while/LoopControlInputs/_116"], "attr": {"parallel_iterations": {"i": "32"}, "is_constant": {"b": false}, "frame_name": {"s": "U3RhdGVmdWxQYXJ0aXRpb25lZENhbGwvVHJhbnNmb3JtZXJfZW5jb2Rlci9iaWRpcmVjdGlvbmFsXzIvYmFja3dhcmRfTFNUTV8wL3doaWxl"}, "T": {"type": "DT_INT32"}}}, {"name": "StatefulPartitionedCall/Transformer_encoder/bidirectional_2/backward_LSTM_0/while/enter/_106", "op": "Enter", "input": ["StatefulPartitionedCall/Transformer_encoder/bidirectional_2/backward_LSTM_0/while/maximum_iterations", "^StatefulPartitionedCall/Transformer_encoder/bidirectional_2/backward_LSTM_0/while/LoopControlInputs/_116"], "attr": {"T": {"type": "DT_INT32"}, "is_constant": {"b": false}, "parallel_iterations": {"i": "32"}, "frame_name": {"s": "U3RhdGVmdWxQYXJ0aXRpb25lZENhbGwvVHJhbnNmb3JtZXJfZW5jb2Rlci9iaWRpcmVjdGlvbmFsXzIvYmFja3dhcmRfTFNUTV8wL3doaWxl"}}}, {"name": "StatefulPartitionedCall/Transformer_encoder/bidirectional_2/backward_LSTM_0/while/enter/_109", "op": "Enter", "input": ["StatefulPartitionedCall/Transformer_encoder/bidirectional_2/backward_LSTM_0/zeros", "^StatefulPartitionedCall/Transformer_encoder/bidirectional_2/backward_LSTM_0/while/LoopControlInputs/_116"], "attr": {"frame_name": {"s": "U3RhdGVmdWxQYXJ0aXRpb25lZENhbGwvVHJhbnNmb3JtZXJfZW5jb2Rlci9iaWRpcmVjdGlvbmFsXzIvYmFja3dhcmRfTFNUTV8wL3doaWxl"}, "is_constant": {"b": false}, "T": {"type": "DT_FLOAT"}, "parallel_iterations": {"i": "32"}}}, {"name": "StatefulPartitionedCall/Transformer_encoder/bidirectional_2/backward_LSTM_0/while/enter/_112", "op": "Enter", "input": ["StatefulPartitionedCall/Transformer_encoder/bidirectional_2/backward_LSTM_0/TensorArrayUnstack/TensorListFromTensor", "^StatefulPartitionedCall/Transformer_encoder/bidirectional_2/backward_LSTM_0/while/LoopControlInputs/_116"], "attr": {"parallel_iterations": {"i": "32"}, "is_constant": {"b": false}, "T": {"type": "DT_VARIANT"}, "frame_name": {"s": "U3RhdGVmdWxQYXJ0aXRpb25lZENhbGwvVHJhbnNmb3JtZXJfZW5jb2Rlci9iaWRpcmVjdGlvbmFsXzIvYmFja3dhcmRfTFNUTV8wL3doaWxl"}}}, {"name": "StatefulPartitionedCall/Transformer_encoder/bidirectional_2/backward_LSTM_0/while/enter/_107", "op": "Enter", "input": ["StatefulPartitionedCall/Transformer_encoder/bidirectional_2/backward_LSTM_0/time", "^StatefulPartitionedCall/Transformer_encoder/bidirectional_2/backward_LSTM_0/while/LoopControlInputs/_116"], "attr": {"parallel_iterations": {"i": "32"}, "is_constant": {"b": false}, "frame_name": {"s": "U3RhdGVmdWxQYXJ0aXRpb25lZENhbGwvVHJhbnNmb3JtZXJfZW5jb2Rlci9iaWRpcmVjdGlvbmFsXzIvYmFja3dhcmRfTFNUTV8wL3doaWxl"}, "T": {"type": "DT_INT32"}}}, {"name": "StatefulPartitionedCall/Transformer_encoder/bidirectional_2/backward_LSTM_0/while/enter/_113", "op": "Enter", "input": ["Func/StatefulPartitionedCall/input/_29", "^StatefulPartitionedCall/Transformer_encoder/bidirectional_2/backward_LSTM_0/while/LoopControlInputs/_116"], "attr": {"parallel_iterations": {"i": "32"}, "is_constant": {"b": true}, "frame_name": {"s": "U3RhdGVmdWxQYXJ0aXRpb25lZENhbGwvVHJhbnNmb3JtZXJfZW5jb2Rlci9iaWRpcmVjdGlvbmFsXzIvYmFja3dhcmRfTFNUTV8wL3doaWxl"}, "_has_manual_control_dependencies": {"b": true}, "T": {"type": "DT_FLOAT"}}}, {"name": "StatefulPartitionedCall/Transformer_encoder/bidirectional_2/backward_LSTM_0/while/enter/_114", "op": "Enter", "input": ["Func/StatefulPartitionedCall/input/_30", "^StatefulPartitionedCall/Transformer_encoder/bidirectional_2/backward_LSTM_0/while/LoopControlInputs/_116"], "attr": {"_has_manual_control_dependencies": {"b": true}, "frame_name": {"s": "U3RhdGVmdWxQYXJ0aXRpb25lZENhbGwvVHJhbnNmb3JtZXJfZW5jb2Rlci9iaWRpcmVjdGlvbmFsXzIvYmFja3dhcmRfTFNUTV8wL3doaWxl"}, "T": {"type": "DT_FLOAT"}, "is_constant": {"b": true}, "parallel_iterations": {"i": "32"}}}, {"name": "StatefulPartitionedCall/Transformer_encoder/bidirectional_2/backward_LSTM_0/while/enter/_115", "op": "Enter", "input": ["Func/StatefulPartitionedCall/input/_31", "^StatefulPartitionedCall/Transformer_encoder/bidirectional_2/backward_LSTM_0/while/LoopControlInputs/_116"], "attr": {"parallel_iterations": {"i": "32"}, "T": {"type": "DT_FLOAT"}, "_has_manual_control_dependencies": {"b": true}, "is_constant": {"b": true}, "frame_name": {"s": "U3RhdGVmdWxQYXJ0aXRpb25lZENhbGwvVHJhbnNmb3JtZXJfZW5jb2Rlci9iaWRpcmVjdGlvbmFsXzIvYmFja3dhcmRfTFNUTV8wL3doaWxl"}}}, {"name": "StatefulPartitionedCall/Transformer_encoder/bidirectional_2/forward_LSTM_0/while/merge/_71", "op": "Merge", "input": ["StatefulPartitionedCall/Transformer_encoder/bidirectional_2/forward_LSTM_0/while/enter/_59", "StatefulPartitionedCall/Transformer_encoder/bidirectional_2/forward_LSTM_0/while/next_iteration/_98"], "attr": {"T": {"type": "DT_VARIANT"}, "N": {"i": "2"}, "_has_manual_control_dependencies": {"b": true}}}, {"name": "StatefulPartitionedCall/Transformer_encoder/bidirectional_2/forward_LSTM_0/while/merge/_73", "op": "Merge", "input": ["StatefulPartitionedCall/Transformer_encoder/bidirectional_2/forward_LSTM_0/while/enter/_61", "StatefulPartitionedCall/Transformer_encoder/bidirectional_2/forward_LSTM_0/while/next_iteration/_100"], "attr": {"_has_manual_control_dependencies": {"b": true}, "T": {"type": "DT_FLOAT"}, "N": {"i": "2"}}}, {"name": "StatefulPartitionedCall/Transformer_encoder/bidirectional_2/forward_LSTM_0/while/merge/_74", "op": "Merge", "input": ["StatefulPartitionedCall/Transformer_encoder/bidirectional_2/forward_LSTM_0/while/enter/_62", "StatefulPartitionedCall/Transformer_encoder/bidirectional_2/forward_LSTM_0/while/next_iteration/_101"], "attr": {"N": {"i": "2"}, "_has_manual_control_dependencies": {"b": true}, "T": {"type": "DT_INT32"}}}, {"name": "StatefulPartitionedCall/Transformer_encoder/bidirectional_2/forward_LSTM_0/while/merge/_68", "op": "Merge", "input": ["StatefulPartitionedCall/Transformer_encoder/bidirectional_2/forward_LSTM_0/while/enter/_56", "StatefulPartitionedCall/Transformer_encoder/bidirectional_2/forward_LSTM_0/while/next_iteration/_95"], "attr": {"T": {"type": "DT_INT32"}, "N": {"i": "2"}, "_has_manual_control_dependencies": {"b": true}}}, {"name": "StatefulPartitionedCall/Transformer_encoder/bidirectional_2/forward_LSTM_0/while/merge/_69", "op": "Merge", "input": ["StatefulPartitionedCall/Transformer_encoder/bidirectional_2/forward_LSTM_0/while/enter/_57", "StatefulPartitionedCall/Transformer_encoder/bidirectional_2/forward_LSTM_0/while/next_iteration/_96"], "attr": {"_has_manual_control_dependencies": {"b": true}, "N": {"i": "2"}, "T": {"type": "DT_INT32"}}}, {"name": "StatefulPartitionedCall/Transformer_encoder/bidirectional_2/forward_LSTM_0/while/merge/_72", "op": "Merge", "input": ["StatefulPartitionedCall/Transformer_encoder/bidirectional_2/forward_LSTM_0/while/enter/_60", "StatefulPartitionedCall/Transformer_encoder/bidirectional_2/forward_LSTM_0/while/next_iteration/_99"], "attr": {"_has_manual_control_dependencies": {"b": true}, "N": {"i": "2"}, "T": {"type": "DT_FLOAT"}}}, {"name": "StatefulPartitionedCall/Transformer_encoder/bidirectional_2/forward_LSTM_0/while/merge/_75", "op": "Merge", "input": ["StatefulPartitionedCall/Transformer_encoder/bidirectional_2/forward_LSTM_0/while/enter/_63", "StatefulPartitionedCall/Transformer_encoder/bidirectional_2/forward_LSTM_0/while/next_iteration/_102"], "attr": {"_has_manual_control_dependencies": {"b": true}, "T": {"type": "DT_VARIANT"}, "N": {"i": "2"}}}, {"name": "StatefulPartitionedCall/Transformer_encoder/bidirectional_2/forward_LSTM_0/while/merge/_70", "op": "Merge", "input": ["StatefulPartitionedCall/Transformer_encoder/bidirectional_2/forward_LSTM_0/while/enter/_58", "StatefulPartitionedCall/Transformer_encoder/bidirectional_2/forward_LSTM_0/while/next_iteration/_97"], "attr": {"N": {"i": "2"}, "T": {"type": "DT_INT32"}, "_has_manual_control_dependencies": {"b": true}}}, {"name": "StatefulPartitionedCall/Transformer_encoder/bidirectional_2/backward_LSTM_0/while/merge/_120", "op": "Merge", "input": ["StatefulPartitionedCall/Transformer_encoder/bidirectional_2/backward_LSTM_0/while/enter/_108", "StatefulPartitionedCall/Transformer_encoder/bidirectional_2/backward_LSTM_0/while/next_iteration/_147"], "attr": {"N": {"i": "2"}, "_has_manual_control_dependencies": {"b": true}, "T": {"type": "DT_VARIANT"}}}, {"name": "StatefulPartitionedCall/Transformer_encoder/bidirectional_2/backward_LSTM_0/while/merge/_122", "op": "Merge", "input": ["StatefulPartitionedCall/Transformer_encoder/bidirectional_2/backward_LSTM_0/while/enter/_110", "StatefulPartitionedCall/Transformer_encoder/bidirectional_2/backward_LSTM_0/while/next_iteration/_149"], "attr": {"N": {"i": "2"}, "_has_manual_control_dependencies": {"b": true}, "T": {"type": "DT_FLOAT"}}}, {"name": "StatefulPartitionedCall/Transformer_encoder/bidirectional_2/backward_LSTM_0/while/merge/_123", "op": "Merge", "input": ["StatefulPartitionedCall/Transformer_encoder/bidirectional_2/backward_LSTM_0/while/enter/_111", "StatefulPartitionedCall/Transformer_encoder/bidirectional_2/backward_LSTM_0/while/next_iteration/_150"], "attr": {"T": {"type": "DT_INT32"}, "_has_manual_control_dependencies": {"b": true}, "N": {"i": "2"}}}, {"name": "StatefulPartitionedCall/Transformer_encoder/bidirectional_2/backward_LSTM_0/while/merge/_117", "op": "Merge", "input": ["StatefulPartitionedCall/Transformer_encoder/bidirectional_2/backward_LSTM_0/while/enter/_105", "StatefulPartitionedCall/Transformer_encoder/bidirectional_2/backward_LSTM_0/while/next_iteration/_144"], "attr": {"_has_manual_control_dependencies": {"b": true}, "T": {"type": "DT_INT32"}, "N": {"i": "2"}}}, {"name": "StatefulPartitionedCall/Transformer_encoder/bidirectional_2/backward_LSTM_0/while/merge/_118", "op": "Merge", "input": ["StatefulPartitionedCall/Transformer_encoder/bidirectional_2/backward_LSTM_0/while/enter/_106", "StatefulPartitionedCall/Transformer_encoder/bidirectional_2/backward_LSTM_0/while/next_iteration/_145"], "attr": {"_has_manual_control_dependencies": {"b": true}, "N": {"i": "2"}, "T": {"type": "DT_INT32"}}}, {"name": "StatefulPartitionedCall/Transformer_encoder/bidirectional_2/backward_LSTM_0/while/merge/_121", "op": "Merge", "input": ["StatefulPartitionedCall/Transformer_encoder/bidirectional_2/backward_LSTM_0/while/enter/_109", "StatefulPartitionedCall/Transformer_encoder/bidirectional_2/backward_LSTM_0/while/next_iteration/_148"], "attr": {"N": {"i": "2"}, "T": {"type": "DT_FLOAT"}, "_has_manual_control_dependencies": {"b": true}}}, {"name": "StatefulPartitionedCall/Transformer_encoder/bidirectional_2/backward_LSTM_0/while/merge/_124", "op": "Merge", "input": ["StatefulPartitionedCall/Transformer_encoder/bidirectional_2/backward_LSTM_0/while/enter/_112", "StatefulPartitionedCall/Transformer_encoder/bidirectional_2/backward_LSTM_0/while/next_iteration/_151"], "attr": {"T": {"type": "DT_VARIANT"}, "_has_manual_control_dependencies": {"b": true}, "N": {"i": "2"}}}, {"name": "StatefulPartitionedCall/Transformer_encoder/bidirectional_2/backward_LSTM_0/while/merge/_119", "op": "Merge", "input": ["StatefulPartitionedCall/Transformer_encoder/bidirectional_2/backward_LSTM_0/while/enter/_107", "StatefulPartitionedCall/Transformer_encoder/bidirectional_2/backward_LSTM_0/while/next_iteration/_146"], "attr": {"T": {"type": "DT_INT32"}, "N": {"i": "2"}, "_has_manual_control_dependencies": {"b": true}}}, {"name": "StatefulPartitionedCall/Transformer_encoder/bidirectional_2/forward_LSTM_0/while/cond/_54/Transformer_encoder/bidirectional_2/forward_LSTM_0/while/Less", "op": "Less", "input": ["StatefulPartitionedCall/Transformer_encoder/bidirectional_2/forward_LSTM_0/while/merge/_70", "StatefulPartitionedCall/Transformer_encoder/bidirectional_2/forward_LSTM_0/while/merge/_74", "^StatefulPartitionedCall/Transformer_encoder/bidirectional_2/forward_LSTM_0/while/merge/_75", "^StatefulPartitionedCall/Transformer_encoder/bidirectional_2/forward_LSTM_0/while/enter/_64", "^StatefulPartitionedCall/Transformer_encoder/bidirectional_2/forward_LSTM_0/while/enter/_65", "^StatefulPartitionedCall/Transformer_encoder/bidirectional_2/forward_LSTM_0/while/enter/_66", "^StatefulPartitionedCall/Transformer_encoder/bidirectional_2/forward_LSTM_0/while/merge/_68", "^StatefulPartitionedCall/Transformer_encoder/bidirectional_2/forward_LSTM_0/while/merge/_69", "^StatefulPartitionedCall/Transformer_encoder/bidirectional_2/forward_LSTM_0/while/merge/_71", "^StatefulPartitionedCall/Transformer_encoder/bidirectional_2/forward_LSTM_0/while/merge/_72", "^StatefulPartitionedCall/Transformer_encoder/bidirectional_2/forward_LSTM_0/while/merge/_73"], "attr": {"T": {"type": "DT_INT32"}}}, {"name": "StatefulPartitionedCall/Transformer_encoder/bidirectional_2/backward_LSTM_0/while/cond/_103/Transformer_encoder/bidirectional_2/backward_LSTM_0/while/Less", "op": "Less", "input": ["StatefulPartitionedCall/Transformer_encoder/bidirectional_2/backward_LSTM_0/while/merge/_119", "StatefulPartitionedCall/Transformer_encoder/bidirectional_2/backward_LSTM_0/while/merge/_123", "^StatefulPartitionedCall/Transformer_encoder/bidirectional_2/backward_LSTM_0/while/merge/_124", "^StatefulPartitionedCall/Transformer_encoder/bidirectional_2/backward_LSTM_0/while/enter/_113", "^StatefulPartitionedCall/Transformer_encoder/bidirectional_2/backward_LSTM_0/while/enter/_114", "^StatefulPartitionedCall/Transformer_encoder/bidirectional_2/backward_LSTM_0/while/enter/_115", "^StatefulPartitionedCall/Transformer_encoder/bidirectional_2/backward_LSTM_0/while/merge/_117", "^StatefulPartitionedCall/Transformer_encoder/bidirectional_2/backward_LSTM_0/while/merge/_118", "^StatefulPartitionedCall/Transformer_encoder/bidirectional_2/backward_LSTM_0/while/merge/_120", "^StatefulPartitionedCall/Transformer_encoder/bidirectional_2/backward_LSTM_0/while/merge/_121", "^StatefulPartitionedCall/Transformer_encoder/bidirectional_2/backward_LSTM_0/while/merge/_122"], "attr": {"T": {"type": "DT_INT32"}}}, {"name": "StatefulPartitionedCall/Transformer_encoder/bidirectional_2/forward_LSTM_0/while/LoopCond/_76", "op": "LoopCond", "input": ["StatefulPartitionedCall/Transformer_encoder/bidirectional_2/forward_LSTM_0/while/cond/_54/Transformer_encoder/bidirectional_2/forward_LSTM_0/while/Less"]}, {"name": "StatefulPartitionedCall/Transformer_encoder/bidirectional_2/backward_LSTM_0/while/LoopCond/_125", "op": "LoopCond", "input": ["StatefulPartitionedCall/Transformer_encoder/bidirectional_2/backward_LSTM_0/while/cond/_103/Transformer_encoder/bidirectional_2/backward_LSTM_0/while/Less"]}, {"name": "StatefulPartitionedCall/Transformer_encoder/bidirectional_2/forward_LSTM_0/while/StatefulPartitionedCall/Transformer_encoder/bidirectional_2/forward_LSTM_0/strided_slice_1_switch/_83", "op": "Switch", "input": ["StatefulPartitionedCall/Transformer_encoder/bidirectional_2/forward_LSTM_0/while/merge/_74", "StatefulPartitionedCall/Transformer_encoder/bidirectional_2/forward_LSTM_0/while/LoopCond/_76"], "attr": {"T": {"type": "DT_INT32"}}}, {"name": "StatefulPartitionedCall/Transformer_encoder/bidirectional_2/forward_LSTM_0/while/StatefulPartitionedCall/Transformer_encoder/bidirectional_2/forward_LSTM_0/while/loop_counter_switch/_77", "op": "Switch", "input": ["StatefulPartitionedCall/Transformer_encoder/bidirectional_2/forward_LSTM_0/while/merge/_68", "StatefulPartitionedCall/Transformer_encoder/bidirectional_2/forward_LSTM_0/while/LoopCond/_76"], "attr": {"T": {"type": "DT_INT32"}}}, {"name": "StatefulPartitionedCall/Transformer_encoder/bidirectional_2/forward_LSTM_0/while/StatefulPartitionedCall/Transformer_encoder/bidirectional_2/forward_LSTM_0/while/maximum_iterations_switch/_78", "op": "Switch", "input": ["StatefulPartitionedCall/Transformer_encoder/bidirectional_2/forward_LSTM_0/while/merge/_69", "StatefulPartitionedCall/Transformer_encoder/bidirectional_2/forward_LSTM_0/while/LoopCond/_76"], "attr": {"T": {"type": "DT_INT32"}}}, {"name": "StatefulPartitionedCall/Transformer_encoder/bidirectional_2/forward_LSTM_0/while/StatefulPartitionedCall/Transformer_encoder/bidirectional_2/forward_LSTM_0/zeros_1_switch/_82", "op": "Switch", "input": ["StatefulPartitionedCall/Transformer_encoder/bidirectional_2/forward_LSTM_0/while/merge/_73", "StatefulPartitionedCall/Transformer_encoder/bidirectional_2/forward_LSTM_0/while/LoopCond/_76"], "attr": {"T": {"type": "DT_FLOAT"}}}, {"name": "StatefulPartitionedCall/Transformer_encoder/bidirectional_2/forward_LSTM_0/while/StatefulPartitionedCall/Transformer_encoder/bidirectional_2/forward_LSTM_0/TensorArrayUnstack/TensorListFromTensor_switch/_84", "op": "Switch", "input": ["StatefulPartitionedCall/Transformer_encoder/bidirectional_2/forward_LSTM_0/while/merge/_75", "StatefulPartitionedCall/Transformer_encoder/bidirectional_2/forward_LSTM_0/while/LoopCond/_76"], "attr": {"T": {"type": "DT_VARIANT"}}}, {"name": "StatefulPartitionedCall/Transformer_encoder/bidirectional_2/forward_LSTM_0/while/StatefulPartitionedCall/Transformer_encoder/bidirectional_2/forward_LSTM_0/time_switch/_79", "op": "Switch", "input": ["StatefulPartitionedCall/Transformer_encoder/bidirectional_2/forward_LSTM_0/while/merge/_70", "StatefulPartitionedCall/Transformer_encoder/bidirectional_2/forward_LSTM_0/while/LoopCond/_76"], "attr": {"T": {"type": "DT_INT32"}}}, {"name": "StatefulPartitionedCall/Transformer_encoder/bidirectional_2/forward_LSTM_0/while/StatefulPartitionedCall/Transformer_encoder/bidirectional_2/forward_LSTM_0/zeros_switch/_81", "op": "Switch", "input": ["StatefulPartitionedCall/Transformer_encoder/bidirectional_2/forward_LSTM_0/while/merge/_72", "StatefulPartitionedCall/Transformer_encoder/bidirectional_2/forward_LSTM_0/while/LoopCond/_76"], "attr": {"T": {"type": "DT_FLOAT"}}}, {"name": "StatefulPartitionedCall/Transformer_encoder/bidirectional_2/forward_LSTM_0/while/StatefulPartitionedCall/Transformer_encoder/bidirectional_2/forward_LSTM_0/TensorArrayV2_1_switch/_80", "op": "Switch", "input": ["StatefulPartitionedCall/Transformer_encoder/bidirectional_2/forward_LSTM_0/while/merge/_71", "StatefulPartitionedCall/Transformer_encoder/bidirectional_2/forward_LSTM_0/while/LoopCond/_76"], "attr": {"T": {"type": "DT_VARIANT"}}}, {"name": "StatefulPartitionedCall/Transformer_encoder/bidirectional_2/backward_LSTM_0/while/StatefulPartitionedCall/Transformer_encoder/bidirectional_2/backward_LSTM_0/strided_slice_1_switch/_132", "op": "Switch", "input": ["StatefulPartitionedCall/Transformer_encoder/bidirectional_2/backward_LSTM_0/while/merge/_123", "StatefulPartitionedCall/Transformer_encoder/bidirectional_2/backward_LSTM_0/while/LoopCond/_125"], "attr": {"T": {"type": "DT_INT32"}}}, {"name": "StatefulPartitionedCall/Transformer_encoder/bidirectional_2/backward_LSTM_0/while/StatefulPartitionedCall/Transformer_encoder/bidirectional_2/backward_LSTM_0/while/loop_counter_switch/_126", "op": "Switch", "input": ["StatefulPartitionedCall/Transformer_encoder/bidirectional_2/backward_LSTM_0/while/merge/_117", "StatefulPartitionedCall/Transformer_encoder/bidirectional_2/backward_LSTM_0/while/LoopCond/_125"], "attr": {"T": {"type": "DT_INT32"}}}, {"name": "StatefulPartitionedCall/Transformer_encoder/bidirectional_2/backward_LSTM_0/while/StatefulPartitionedCall/Transformer_encoder/bidirectional_2/backward_LSTM_0/while/maximum_iterations_switch/_127", "op": "Switch", "input": ["StatefulPartitionedCall/Transformer_encoder/bidirectional_2/backward_LSTM_0/while/merge/_118", "StatefulPartitionedCall/Transformer_encoder/bidirectional_2/backward_LSTM_0/while/LoopCond/_125"], "attr": {"T": {"type": "DT_INT32"}}}, {"name": "StatefulPartitionedCall/Transformer_encoder/bidirectional_2/backward_LSTM_0/while/StatefulPartitionedCall/Transformer_encoder/bidirectional_2/backward_LSTM_0/zeros_1_switch/_131", "op": "Switch", "input": ["StatefulPartitionedCall/Transformer_encoder/bidirectional_2/backward_LSTM_0/while/merge/_122", "StatefulPartitionedCall/Transformer_encoder/bidirectional_2/backward_LSTM_0/while/LoopCond/_125"], "attr": {"T": {"type": "DT_FLOAT"}}}, {"name": "StatefulPartitionedCall/Transformer_encoder/bidirectional_2/backward_LSTM_0/while/StatefulPartitionedCall/Transformer_encoder/bidirectional_2/backward_LSTM_0/TensorArrayUnstack/TensorListFromTensor_switch/_133", "op": "Switch", "input": ["StatefulPartitionedCall/Transformer_encoder/bidirectional_2/backward_LSTM_0/while/merge/_124", "StatefulPartitionedCall/Transformer_encoder/bidirectional_2/backward_LSTM_0/while/LoopCond/_125"], "attr": {"T": {"type": "DT_VARIANT"}}}, {"name": "StatefulPartitionedCall/Transformer_encoder/bidirectional_2/backward_LSTM_0/while/StatefulPartitionedCall/Transformer_encoder/bidirectional_2/backward_LSTM_0/time_switch/_128", "op": "Switch", "input": ["StatefulPartitionedCall/Transformer_encoder/bidirectional_2/backward_LSTM_0/while/merge/_119", "StatefulPartitionedCall/Transformer_encoder/bidirectional_2/backward_LSTM_0/while/LoopCond/_125"], "attr": {"T": {"type": "DT_INT32"}}}, {"name": "StatefulPartitionedCall/Transformer_encoder/bidirectional_2/backward_LSTM_0/while/StatefulPartitionedCall/Transformer_encoder/bidirectional_2/backward_LSTM_0/zeros_switch/_130", "op": "Switch", "input": ["StatefulPartitionedCall/Transformer_encoder/bidirectional_2/backward_LSTM_0/while/merge/_121", "StatefulPartitionedCall/Transformer_encoder/bidirectional_2/backward_LSTM_0/while/LoopCond/_125"], "attr": {"T": {"type": "DT_FLOAT"}}}, {"name": "StatefulPartitionedCall/Transformer_encoder/bidirectional_2/backward_LSTM_0/while/StatefulPartitionedCall/Transformer_encoder/bidirectional_2/backward_LSTM_0/TensorArrayV2_1_switch/_129", "op": "Switch", "input": ["StatefulPartitionedCall/Transformer_encoder/bidirectional_2/backward_LSTM_0/while/merge/_120", "StatefulPartitionedCall/Transformer_encoder/bidirectional_2/backward_LSTM_0/while/LoopCond/_125"], "attr": {"T": {"type": "DT_VARIANT"}}}, {"name": "StatefulPartitionedCall/Transformer_encoder/bidirectional_2/forward_LSTM_0/while/exit/_92", "op": "Exit", "input": ["StatefulPartitionedCall/Transformer_encoder/bidirectional_2/forward_LSTM_0/while/StatefulPartitionedCall/Transformer_encoder/bidirectional_2/forward_LSTM_0/strided_slice_1_switch/_83"], "attr": {"T": {"type": "DT_INT32"}, "_has_manual_control_dependencies": {"b": true}}}, {"name": "StatefulPartitionedCall/Transformer_encoder/bidirectional_2/forward_LSTM_0/while/exit/_86", "op": "Exit", "input": ["StatefulPartitionedCall/Transformer_encoder/bidirectional_2/forward_LSTM_0/while/StatefulPartitionedCall/Transformer_encoder/bidirectional_2/forward_LSTM_0/while/loop_counter_switch/_77"], "attr": {"T": {"type": "DT_INT32"}, "_has_manual_control_dependencies": {"b": true}}}, {"name": "StatefulPartitionedCall/Transformer_encoder/bidirectional_2/forward_LSTM_0/while/loop_body_control/_85", "op": "Identity", "input": ["StatefulPartitionedCall/Transformer_encoder/bidirectional_2/forward_LSTM_0/while/StatefulPartitionedCall/Transformer_encoder/bidirectional_2/forward_LSTM_0/while/loop_counter_switch/_77:1"], "attr": {"T": {"type": "DT_INT32"}, "_has_manual_control_dependencies": {"b": true}}}, {"name": "StatefulPartitionedCall/Transformer_encoder/bidirectional_2/forward_LSTM_0/while/exit/_87", "op": "Exit", "input": ["StatefulPartitionedCall/Transformer_encoder/bidirectional_2/forward_LSTM_0/while/StatefulPartitionedCall/Transformer_encoder/bidirectional_2/forward_LSTM_0/while/maximum_iterations_switch/_78"], "attr": {"T": {"type": "DT_INT32"}, "_has_manual_control_dependencies": {"b": true}}}, {"name": "StatefulPartitionedCall/Transformer_encoder/bidirectional_2/forward_LSTM_0/while/exit/_91", "op": "Exit", "input": ["StatefulPartitionedCall/Transformer_encoder/bidirectional_2/forward_LSTM_0/while/StatefulPartitionedCall/Transformer_encoder/bidirectional_2/forward_LSTM_0/zeros_1_switch/_82"], "attr": {"_has_manual_control_dependencies": {"b": true}, "T": {"type": "DT_FLOAT"}}}, {"name": "StatefulPartitionedCall/Transformer_encoder/bidirectional_2/forward_LSTM_0/while/exit/_93", "op": "Exit", "input": ["StatefulPartitionedCall/Transformer_encoder/bidirectional_2/forward_LSTM_0/while/StatefulPartitionedCall/Transformer_encoder/bidirectional_2/forward_LSTM_0/TensorArrayUnstack/TensorListFromTensor_switch/_84"], "attr": {"T": {"type": "DT_VARIANT"}, "_has_manual_control_dependencies": {"b": true}}}, {"name": "StatefulPartitionedCall/Transformer_encoder/bidirectional_2/forward_LSTM_0/while/exit/_88", "op": "Exit", "input": ["StatefulPartitionedCall/Transformer_encoder/bidirectional_2/forward_LSTM_0/while/StatefulPartitionedCall/Transformer_encoder/bidirectional_2/forward_LSTM_0/time_switch/_79"], "attr": {"T": {"type": "DT_INT32"}, "_has_manual_control_dependencies": {"b": true}}}, {"name": "StatefulPartitionedCall/Transformer_encoder/bidirectional_2/forward_LSTM_0/while/exit/_90", "op": "Exit", "input": ["StatefulPartitionedCall/Transformer_encoder/bidirectional_2/forward_LSTM_0/while/StatefulPartitionedCall/Transformer_encoder/bidirectional_2/forward_LSTM_0/zeros_switch/_81"], "attr": {"T": {"type": "DT_FLOAT"}, "_has_manual_control_dependencies": {"b": true}}}, {"name": "StatefulPartitionedCall/Transformer_encoder/bidirectional_2/forward_LSTM_0/while/exit/_89", "op": "Exit", "input": ["StatefulPartitionedCall/Transformer_encoder/bidirectional_2/forward_LSTM_0/while/StatefulPartitionedCall/Transformer_encoder/bidirectional_2/forward_LSTM_0/TensorArrayV2_1_switch/_80"], "attr": {"T": {"type": "DT_VARIANT"}, "_has_manual_control_dependencies": {"b": true}}}, {"name": "StatefulPartitionedCall/Transformer_encoder/bidirectional_2/backward_LSTM_0/while/exit/_141", "op": "Exit", "input": ["StatefulPartitionedCall/Transformer_encoder/bidirectional_2/backward_LSTM_0/while/StatefulPartitionedCall/Transformer_encoder/bidirectional_2/backward_LSTM_0/strided_slice_1_switch/_132"], "attr": {"T": {"type": "DT_INT32"}, "_has_manual_control_dependencies": {"b": true}}}, {"name": "StatefulPartitionedCall/Transformer_encoder/bidirectional_2/backward_LSTM_0/while/exit/_135", "op": "Exit", "input": ["StatefulPartitionedCall/Transformer_encoder/bidirectional_2/backward_LSTM_0/while/StatefulPartitionedCall/Transformer_encoder/bidirectional_2/backward_LSTM_0/while/loop_counter_switch/_126"], "attr": {"T": {"type": "DT_INT32"}, "_has_manual_control_dependencies": {"b": true}}}, {"name": "StatefulPartitionedCall/Transformer_encoder/bidirectional_2/backward_LSTM_0/while/loop_body_control/_134", "op": "Identity", "input": ["StatefulPartitionedCall/Transformer_encoder/bidirectional_2/backward_LSTM_0/while/StatefulPartitionedCall/Transformer_encoder/bidirectional_2/backward_LSTM_0/while/loop_counter_switch/_126:1"], "attr": {"T": {"type": "DT_INT32"}, "_has_manual_control_dependencies": {"b": true}}}, {"name": "StatefulPartitionedCall/Transformer_encoder/bidirectional_2/backward_LSTM_0/while/exit/_136", "op": "Exit", "input": ["StatefulPartitionedCall/Transformer_encoder/bidirectional_2/backward_LSTM_0/while/StatefulPartitionedCall/Transformer_encoder/bidirectional_2/backward_LSTM_0/while/maximum_iterations_switch/_127"], "attr": {"T": {"type": "DT_INT32"}, "_has_manual_control_dependencies": {"b": true}}}, {"name": "StatefulPartitionedCall/Transformer_encoder/bidirectional_2/backward_LSTM_0/while/exit/_140", "op": "Exit", "input": ["StatefulPartitionedCall/Transformer_encoder/bidirectional_2/backward_LSTM_0/while/StatefulPartitionedCall/Transformer_encoder/bidirectional_2/backward_LSTM_0/zeros_1_switch/_131"], "attr": {"T": {"type": "DT_FLOAT"}, "_has_manual_control_dependencies": {"b": true}}}, {"name": "StatefulPartitionedCall/Transformer_encoder/bidirectional_2/backward_LSTM_0/while/exit/_142", "op": "Exit", "input": ["StatefulPartitionedCall/Transformer_encoder/bidirectional_2/backward_LSTM_0/while/StatefulPartitionedCall/Transformer_encoder/bidirectional_2/backward_LSTM_0/TensorArrayUnstack/TensorListFromTensor_switch/_133"], "attr": {"_has_manual_control_dependencies": {"b": true}, "T": {"type": "DT_VARIANT"}}}, {"name": "StatefulPartitionedCall/Transformer_encoder/bidirectional_2/backward_LSTM_0/while/exit/_137", "op": "Exit", "input": ["StatefulPartitionedCall/Transformer_encoder/bidirectional_2/backward_LSTM_0/while/StatefulPartitionedCall/Transformer_encoder/bidirectional_2/backward_LSTM_0/time_switch/_128"], "attr": {"_has_manual_control_dependencies": {"b": true}, "T": {"type": "DT_INT32"}}}, {"name": "StatefulPartitionedCall/Transformer_encoder/bidirectional_2/backward_LSTM_0/while/exit/_139", "op": "Exit", "input": ["StatefulPartitionedCall/Transformer_encoder/bidirectional_2/backward_LSTM_0/while/StatefulPartitionedCall/Transformer_encoder/bidirectional_2/backward_LSTM_0/zeros_switch/_130"], "attr": {"T": {"type": "DT_FLOAT"}, "_has_manual_control_dependencies": {"b": true}}}, {"name": "StatefulPartitionedCall/Transformer_encoder/bidirectional_2/backward_LSTM_0/while/exit/_138", "op": "Exit", "input": ["StatefulPartitionedCall/Transformer_encoder/bidirectional_2/backward_LSTM_0/while/StatefulPartitionedCall/Transformer_encoder/bidirectional_2/backward_LSTM_0/TensorArrayV2_1_switch/_129"], "attr": {"T": {"type": "DT_VARIANT"}, "_has_manual_control_dependencies": {"b": true}}}, {"name": "Func/StatefulPartitionedCall/Transformer_encoder/bidirectional_2/forward_LSTM_0/while/body/_55/input_control_node/_361", "op": "NoOp", "input": ["^StatefulPartitionedCall/Transformer_encoder/bidirectional_2/forward_LSTM_0/while/StatefulPartitionedCall/Transformer_encoder/bidirectional_2/forward_LSTM_0/TensorArrayUnstack/TensorListFromTensor_switch/_84", "^StatefulPartitionedCall/Transformer_encoder/bidirectional_2/forward_LSTM_0/while/StatefulPartitionedCall/Transformer_encoder/bidirectional_2/forward_LSTM_0/TensorArrayV2_1_switch/_80", "^StatefulPartitionedCall/Transformer_encoder/bidirectional_2/forward_LSTM_0/while/StatefulPartitionedCall/Transformer_encoder/bidirectional_2/forward_LSTM_0/strided_slice_1_switch/_83", "^StatefulPartitionedCall/Transformer_encoder/bidirectional_2/forward_LSTM_0/while/StatefulPartitionedCall/Transformer_encoder/bidirectional_2/forward_LSTM_0/time_switch/_79", "^StatefulPartitionedCall/Transformer_encoder/bidirectional_2/forward_LSTM_0/while/loop_body_control/_85", "^StatefulPartitionedCall/Transformer_encoder/bidirectional_2/forward_LSTM_0/while/StatefulPartitionedCall/Transformer_encoder/bidirectional_2/forward_LSTM_0/while/maximum_iterations_switch/_78", "^StatefulPartitionedCall/Transformer_encoder/bidirectional_2/forward_LSTM_0/while/StatefulPartitionedCall/Transformer_encoder/bidirectional_2/forward_LSTM_0/zeros_1_switch/_82", "^StatefulPartitionedCall/Transformer_encoder/bidirectional_2/forward_LSTM_0/while/StatefulPartitionedCall/Transformer_encoder/bidirectional_2/forward_LSTM_0/zeros_switch/_81", "^StatefulPartitionedCall/Transformer_encoder/bidirectional_2/forward_LSTM_0/while/enter/_64", "^StatefulPartitionedCall/Transformer_encoder/bidirectional_2/forward_LSTM_0/while/enter/_65", "^StatefulPartitionedCall/Transformer_encoder/bidirectional_2/forward_LSTM_0/while/enter/_66"], "attr": {"_has_manual_control_dependencies": {"b": true}}}, {"name": "StatefulPartitionedCall/Transformer_encoder/bidirectional_2/forward_LSTM_0/TensorArrayV2Stack/TensorListStack", "op": "TensorListStack", "input": ["StatefulPartitionedCall/Transformer_encoder/bidirectional_2/forward_LSTM_0/while/exit/_89", "StatefulPartitionedCall/Transformer_encoder/bidirectional_2/forward_LSTM_0/TensorArrayV2Stack/TensorListStack/element_shape"], "attr": {"element_dtype": {"type": "DT_FLOAT"}, "num_elements": {"i": "-1"}}}, {"name": "Func/StatefulPartitionedCall/Transformer_encoder/bidirectional_2/backward_LSTM_0/while/body/_104/input_control_node/_398", "op": "NoOp", "input": ["^StatefulPartitionedCall/Transformer_encoder/bidirectional_2/backward_LSTM_0/while/StatefulPartitionedCall/Transformer_encoder/bidirectional_2/backward_LSTM_0/TensorArrayUnstack/TensorListFromTensor_switch/_133", "^StatefulPartitionedCall/Transformer_encoder/bidirectional_2/backward_LSTM_0/while/StatefulPartitionedCall/Transformer_encoder/bidirectional_2/backward_LSTM_0/TensorArrayV2_1_switch/_129", "^StatefulPartitionedCall/Transformer_encoder/bidirectional_2/backward_LSTM_0/while/StatefulPartitionedCall/Transformer_encoder/bidirectional_2/backward_LSTM_0/strided_slice_1_switch/_132", "^StatefulPartitionedCall/Transformer_encoder/bidirectional_2/backward_LSTM_0/while/StatefulPartitionedCall/Transformer_encoder/bidirectional_2/backward_LSTM_0/time_switch/_128", "^StatefulPartitionedCall/Transformer_encoder/bidirectional_2/backward_LSTM_0/while/loop_body_control/_134", "^StatefulPartitionedCall/Transformer_encoder/bidirectional_2/backward_LSTM_0/while/StatefulPartitionedCall/Transformer_encoder/bidirectional_2/backward_LSTM_0/while/maximum_iterations_switch/_127", "^StatefulPartitionedCall/Transformer_encoder/bidirectional_2/backward_LSTM_0/while/StatefulPartitionedCall/Transformer_encoder/bidirectional_2/backward_LSTM_0/zeros_1_switch/_131", "^StatefulPartitionedCall/Transformer_encoder/bidirectional_2/backward_LSTM_0/while/StatefulPartitionedCall/Transformer_encoder/bidirectional_2/backward_LSTM_0/zeros_switch/_130", "^StatefulPartitionedCall/Transformer_encoder/bidirectional_2/backward_LSTM_0/while/enter/_113", "^StatefulPartitionedCall/Transformer_encoder/bidirectional_2/backward_LSTM_0/while/enter/_114", "^StatefulPartitionedCall/Transformer_encoder/bidirectional_2/backward_LSTM_0/while/enter/_115"], "attr": {"_has_manual_control_dependencies": {"b": true}}}, {"name": "StatefulPartitionedCall/Transformer_encoder/bidirectional_2/backward_LSTM_0/TensorArrayV2Stack/TensorListStack", "op": "TensorListStack", "input": ["StatefulPartitionedCall/Transformer_encoder/bidirectional_2/backward_LSTM_0/while/exit/_138", "StatefulPartitionedCall/Transformer_encoder/bidirectional_2/backward_LSTM_0/TensorArrayV2Stack/TensorListStack/element_shape"], "attr": {"element_dtype": {"type": "DT_FLOAT"}, "num_elements": {"i": "-1"}}}, {"name": "StatefulPartitionedCall/Transformer_encoder/bidirectional_2/forward_LSTM_0/while/body/_55/Transformer_encoder/bidirectional_2/forward_LSTM_0/while/add_1/y", "op": "Const", "input": ["^Func/StatefulPartitionedCall/Transformer_encoder/bidirectional_2/forward_LSTM_0/while/body/_55/input_control_node/_361"], "attr": {"value": {"tensor": {"dtype": "DT_INT32", "tensorShape": {}}}, "dtype": {"type": "DT_INT32"}}}, {"name": "ConstantFolding/StatefulPartitionedCall/Transformer_encoder/bidirectional_2/forward_LSTM_0/while/body/_55/Transformer_encoder/bidirectional_2/forward_LSTM_0/while/lstm_cell/split-folded-3", "op": "Const", "input": ["^Func/StatefulPartitionedCall/Transformer_encoder/bidirectional_2/forward_LSTM_0/while/body/_55/input_control_node/_361", "^StatefulPartitionedCall/Transformer_encoder/bidirectional_2/forward_LSTM_0/while/enter/_64"], "attr": {"dtype": {"type": "DT_FLOAT"}, "value": {"tensor": {"dtype": "DT_FLOAT", "tensorShape": {"dim": [{"size": "128"}, {"size": "64"}]}}}}}, {"name": "ConstantFolding/StatefulPartitionedCall/Transformer_encoder/bidirectional_2/forward_LSTM_0/while/body/_55/Transformer_encoder/bidirectional_2/forward_LSTM_0/while/lstm_cell/split_1-folded-3", "op": "Const", "input": ["^Func/StatefulPartitionedCall/Transformer_encoder/bidirectional_2/forward_LSTM_0/while/body/_55/input_control_node/_361", "^StatefulPartitionedCall/Transformer_encoder/bidirectional_2/forward_LSTM_0/while/enter/_65"], "attr": {"dtype": {"type": "DT_FLOAT"}, "value": {"tensor": {"dtype": "DT_FLOAT", "tensorShape": {"dim": [{"size": "64"}]}}}}}, {"name": "ConstantFolding/StatefulPartitionedCall/Transformer_encoder/bidirectional_2/forward_LSTM_0/while/body/_55/Transformer_encoder/bidirectional_2/forward_LSTM_0/while/lstm_cell/split-folded-1", "op": "Const", "input": ["^Func/StatefulPartitionedCall/Transformer_encoder/bidirectional_2/forward_LSTM_0/while/body/_55/input_control_node/_361", "^StatefulPartitionedCall/Transformer_encoder/bidirectional_2/forward_LSTM_0/while/enter/_64"], "attr": {"dtype": {"type": "DT_FLOAT"}, "value": {"tensor": {"dtype": "DT_FLOAT", "tensorShape": {"dim": [{"size": "128"}, {"size": "64"}]}}}}}, {"name": "ConstantFolding/StatefulPartitionedCall/Transformer_encoder/bidirectional_2/forward_LSTM_0/while/body/_55/Transformer_encoder/bidirectional_2/forward_LSTM_0/while/lstm_cell/split_1-folded-1", "op": "Const", "input": ["^Func/StatefulPartitionedCall/Transformer_encoder/bidirectional_2/forward_LSTM_0/while/body/_55/input_control_node/_361", "^StatefulPartitionedCall/Transformer_encoder/bidirectional_2/forward_LSTM_0/while/enter/_65"], "attr": {"value": {"tensor": {"dtype": "DT_FLOAT", "tensorShape": {"dim": [{"size": "64"}]}}}, "dtype": {"type": "DT_FLOAT"}}}, {"name": "ConstantFolding/StatefulPartitionedCall/Transformer_encoder/bidirectional_2/forward_LSTM_0/while/body/_55/Transformer_encoder/bidirectional_2/forward_LSTM_0/while/lstm_cell/split-folded-0", "op": "Const", "input": ["^Func/StatefulPartitionedCall/Transformer_encoder/bidirectional_2/forward_LSTM_0/while/body/_55/input_control_node/_361", "^StatefulPartitionedCall/Transformer_encoder/bidirectional_2/forward_LSTM_0/while/enter/_64"], "attr": {"value": {"tensor": {"dtype": "DT_FLOAT", "tensorShape": {"dim": [{"size": "128"}, {"size": "64"}]}}}, "dtype": {"type": "DT_FLOAT"}}}, {"name": "ConstantFolding/StatefulPartitionedCall/Transformer_encoder/bidirectional_2/forward_LSTM_0/while/body/_55/Transformer_encoder/bidirectional_2/forward_LSTM_0/while/lstm_cell/split_1-folded-0", "op": "Const", "input": ["^Func/StatefulPartitionedCall/Transformer_encoder/bidirectional_2/forward_LSTM_0/while/body/_55/input_control_node/_361", "^StatefulPartitionedCall/Transformer_encoder/bidirectional_2/forward_LSTM_0/while/enter/_65"], "attr": {"value": {"tensor": {"dtype": "DT_FLOAT", "tensorShape": {"dim": [{"size": "64"}]}}}, "dtype": {"type": "DT_FLOAT"}}}, {"name": "StatefulPartitionedCall/Transformer_encoder/bidirectional_2/forward_LSTM_0/while/body/_55/Transformer_encoder/bidirectional_2/forward_LSTM_0/while/add/y", "op": "Const", "input": ["^Func/StatefulPartitionedCall/Transformer_encoder/bidirectional_2/forward_LSTM_0/while/body/_55/input_control_node/_361"], "attr": {"dtype": {"type": "DT_INT32"}, "value": {"tensor": {"dtype": "DT_INT32", "tensorShape": {}}}}}, {"name": "Func/StatefulPartitionedCall/Transformer_encoder/bidirectional_2/forward_LSTM_0/while/body/_55/input/_364", "op": "Identity", "input": ["StatefulPartitionedCall/Transformer_encoder/bidirectional_2/forward_LSTM_0/while/StatefulPartitionedCall/Transformer_encoder/bidirectional_2/forward_LSTM_0/time_switch/_79:1", "^Func/StatefulPartitionedCall/Transformer_encoder/bidirectional_2/forward_LSTM_0/while/body/_55/input_control_node/_361"], "attr": {"T": {"type": "DT_INT32"}}}, {"name": "StatefulPartitionedCall/Transformer_encoder/bidirectional_2/forward_LSTM_0/while/body/_55/Transformer_encoder/bidirectional_2/forward_LSTM_0/while/TensorArrayV2Read/TensorListGetItem/element_shape", "op": "Const", "input": ["^Func/StatefulPartitionedCall/Transformer_encoder/bidirectional_2/forward_LSTM_0/while/body/_55/input_control_node/_361"], "attr": {"value": {"tensor": {"dtype": "DT_INT32", "tensorShape": {"dim": [{"size": "2"}]}}}, "dtype": {"type": "DT_INT32"}}}, {"name": "ConstantFolding/StatefulPartitionedCall/Transformer_encoder/bidirectional_2/forward_LSTM_0/while/body/_55/Transformer_encoder/bidirectional_2/forward_LSTM_0/while/lstm_cell/split-folded-2", "op": "Const", "input": ["^Func/StatefulPartitionedCall/Transformer_encoder/bidirectional_2/forward_LSTM_0/while/body/_55/input_control_node/_361", "^StatefulPartitionedCall/Transformer_encoder/bidirectional_2/forward_LSTM_0/while/enter/_64"], "attr": {"dtype": {"type": "DT_FLOAT"}, "value": {"tensor": {"dtype": "DT_FLOAT", "tensorShape": {"dim": [{"size": "128"}, {"size": "64"}]}}}}}, {"name": "ConstantFolding/StatefulPartitionedCall/Transformer_encoder/bidirectional_2/forward_LSTM_0/while/body/_55/Transformer_encoder/bidirectional_2/forward_LSTM_0/while/lstm_cell/split_1-folded-2", "op": "Const", "input": ["^Func/StatefulPartitionedCall/Transformer_encoder/bidirectional_2/forward_LSTM_0/while/body/_55/input_control_node/_361", "^StatefulPartitionedCall/Transformer_encoder/bidirectional_2/forward_LSTM_0/while/enter/_65"], "attr": {"value": {"tensor": {"dtype": "DT_FLOAT", "tensorShape": {"dim": [{"size": "64"}]}}}, "dtype": {"type": "DT_FLOAT"}}}, {"name": "Func/StatefulPartitionedCall/Transformer_encoder/bidirectional_2/forward_LSTM_0/while/body/_55/input/_366", "op": "Identity", "input": ["StatefulPartitionedCall/Transformer_encoder/bidirectional_2/forward_LSTM_0/while/StatefulPartitionedCall/Transformer_encoder/bidirectional_2/forward_LSTM_0/zeros_switch/_81:1", "^Func/StatefulPartitionedCall/Transformer_encoder/bidirectional_2/forward_LSTM_0/while/body/_55/input_control_node/_361"], "attr": {"T": {"type": "DT_FLOAT"}}}, {"name": "StatefulPartitionedCall/Transformer_encoder/bidirectional_2/forward_LSTM_0/while/body/_55/Transformer_encoder/bidirectional_2/forward_LSTM_0/while/lstm_cell/strided_slice_3", "op": "Const", "input": ["^StatefulPartitionedCall/Transformer_encoder/bidirectional_2/forward_LSTM_0/while/enter/_66", "^Func/StatefulPartitionedCall/Transformer_encoder/bidirectional_2/forward_LSTM_0/while/body/_55/input_control_node/_361"], "attr": {"value": {"tensor": {"dtype": "DT_FLOAT", "tensorShape": {"dim": [{"size": "64"}, {"size": "64"}]}}}, "dtype": {"type": "DT_FLOAT"}}}, {"name": "StatefulPartitionedCall/Transformer_encoder/bidirectional_2/forward_LSTM_0/while/body/_55/Transformer_encoder/bidirectional_2/forward_LSTM_0/while/lstm_cell/strided_slice_1", "op": "Const", "input": ["^StatefulPartitionedCall/Transformer_encoder/bidirectional_2/forward_LSTM_0/while/enter/_66", "^Func/StatefulPartitionedCall/Transformer_encoder/bidirectional_2/forward_LSTM_0/while/body/_55/input_control_node/_361"], "attr": {"dtype": {"type": "DT_FLOAT"}, "value": {"tensor": {"dtype": "DT_FLOAT", "tensorShape": {"dim": [{"size": "64"}, {"size": "64"}]}}}}}, {"name": "StatefulPartitionedCall/Transformer_encoder/bidirectional_2/forward_LSTM_0/while/body/_55/Transformer_encoder/bidirectional_2/forward_LSTM_0/while/lstm_cell/strided_slice", "op": "Const", "input": ["^StatefulPartitionedCall/Transformer_encoder/bidirectional_2/forward_LSTM_0/while/enter/_66", "^Func/StatefulPartitionedCall/Transformer_encoder/bidirectional_2/forward_LSTM_0/while/body/_55/input_control_node/_361"], "attr": {"dtype": {"type": "DT_FLOAT"}, "value": {"tensor": {"dtype": "DT_FLOAT", "tensorShape": {"dim": [{"size": "64"}, {"size": "64"}]}}}}}, {"name": "StatefulPartitionedCall/Transformer_encoder/bidirectional_2/forward_LSTM_0/while/body/_55/Transformer_encoder/bidirectional_2/forward_LSTM_0/while/lstm_cell/strided_slice_2", "op": "Const", "input": ["^StatefulPartitionedCall/Transformer_encoder/bidirectional_2/forward_LSTM_0/while/enter/_66", "^Func/StatefulPartitionedCall/Transformer_encoder/bidirectional_2/forward_LSTM_0/while/body/_55/input_control_node/_361"], "attr": {"value": {"tensor": {"dtype": "DT_FLOAT", "tensorShape": {"dim": [{"size": "64"}, {"size": "64"}]}}}, "dtype": {"type": "DT_FLOAT"}}}, {"name": "Func/StatefulPartitionedCall/Transformer_encoder/bidirectional_2/forward_LSTM_0/while/body/_55/output_control_node/_384", "op": "NoOp", "input": ["^StatefulPartitionedCall/Transformer_encoder/bidirectional_2/forward_LSTM_0/while/enter/_64", "^Func/StatefulPartitionedCall/Transformer_encoder/bidirectional_2/forward_LSTM_0/while/body/_55/input_control_node/_361", "^StatefulPartitionedCall/Transformer_encoder/bidirectional_2/forward_LSTM_0/while/enter/_65", "^StatefulPartitionedCall/Transformer_encoder/bidirectional_2/forward_LSTM_0/while/enter/_66"], "attr": {"_has_manual_control_dependencies": {"b": true}}}, {"name": "StatefulPartitionedCall/Transformer_encoder/bidirectional_2/forward_LSTM_0/while/body/_55/Transformer_encoder/bidirectional_2/forward_LSTM_0/while/NoOp", "op": "NoOp", "input": ["^StatefulPartitionedCall/Transformer_encoder/bidirectional_2/forward_LSTM_0/while/enter/_64", "^Func/StatefulPartitionedCall/Transformer_encoder/bidirectional_2/forward_LSTM_0/while/body/_55/input_control_node/_361", "^StatefulPartitionedCall/Transformer_encoder/bidirectional_2/forward_LSTM_0/while/enter/_65", "^StatefulPartitionedCall/Transformer_encoder/bidirectional_2/forward_LSTM_0/while/enter/_66"], "attr": {"_has_manual_control_dependencies": {"b": true}}}, {"name": "StatefulPartitionedCall/Transformer_encoder/bidirectional_2/forward_LSTM_0/transpose_1", "op": "Transpose", "input": ["StatefulPartitionedCall/Transformer_encoder/bidirectional_2/forward_LSTM_0/TensorArrayV2Stack/TensorListStack", "StatefulPartitionedCall/Transformer_encoder/bidirectional_2/forward_LSTM_0/transpose_1/perm"], "attr": {"T": {"type": "DT_FLOAT"}, "Tperm": {"type": "DT_INT32"}}}, {"name": "StatefulPartitionedCall/Transformer_encoder/bidirectional_2/backward_LSTM_0/while/body/_104/Transformer_encoder/bidirectional_2/backward_LSTM_0/while/add_1/y", "op": "Const", "input": ["^Func/StatefulPartitionedCall/Transformer_encoder/bidirectional_2/backward_LSTM_0/while/body/_104/input_control_node/_398"], "attr": {"dtype": {"type": "DT_INT32"}, "value": {"tensor": {"dtype": "DT_INT32", "tensorShape": {}}}}}, {"name": "ConstantFolding/StatefulPartitionedCall/Transformer_encoder/bidirectional_2/backward_LSTM_0/while/body/_104/Transformer_encoder/bidirectional_2/backward_LSTM_0/while/lstm_cell/split-folded-3", "op": "Const", "input": ["^Func/StatefulPartitionedCall/Transformer_encoder/bidirectional_2/backward_LSTM_0/while/body/_104/input_control_node/_398", "^StatefulPartitionedCall/Transformer_encoder/bidirectional_2/backward_LSTM_0/while/enter/_113"], "attr": {"value": {"tensor": {"dtype": "DT_FLOAT", "tensorShape": {"dim": [{"size": "128"}, {"size": "64"}]}}}, "dtype": {"type": "DT_FLOAT"}}}, {"name": "ConstantFolding/StatefulPartitionedCall/Transformer_encoder/bidirectional_2/backward_LSTM_0/while/body/_104/Transformer_encoder/bidirectional_2/backward_LSTM_0/while/lstm_cell/split_1-folded-3", "op": "Const", "input": ["^Func/StatefulPartitionedCall/Transformer_encoder/bidirectional_2/backward_LSTM_0/while/body/_104/input_control_node/_398", "^StatefulPartitionedCall/Transformer_encoder/bidirectional_2/backward_LSTM_0/while/enter/_114"], "attr": {"dtype": {"type": "DT_FLOAT"}, "value": {"tensor": {"dtype": "DT_FLOAT", "tensorShape": {"dim": [{"size": "64"}]}}}}}, {"name": "ConstantFolding/StatefulPartitionedCall/Transformer_encoder/bidirectional_2/backward_LSTM_0/while/body/_104/Transformer_encoder/bidirectional_2/backward_LSTM_0/while/lstm_cell/split-folded-1", "op": "Const", "input": ["^Func/StatefulPartitionedCall/Transformer_encoder/bidirectional_2/backward_LSTM_0/while/body/_104/input_control_node/_398", "^StatefulPartitionedCall/Transformer_encoder/bidirectional_2/backward_LSTM_0/while/enter/_113"], "attr": {"dtype": {"type": "DT_FLOAT"}, "value": {"tensor": {"dtype": "DT_FLOAT", "tensorShape": {"dim": [{"size": "128"}, {"size": "64"}]}}}}}, {"name": "ConstantFolding/StatefulPartitionedCall/Transformer_encoder/bidirectional_2/backward_LSTM_0/while/body/_104/Transformer_encoder/bidirectional_2/backward_LSTM_0/while/lstm_cell/split_1-folded-1", "op": "Const", "input": ["^Func/StatefulPartitionedCall/Transformer_encoder/bidirectional_2/backward_LSTM_0/while/body/_104/input_control_node/_398", "^StatefulPartitionedCall/Transformer_encoder/bidirectional_2/backward_LSTM_0/while/enter/_114"], "attr": {"dtype": {"type": "DT_FLOAT"}, "value": {"tensor": {"dtype": "DT_FLOAT", "tensorShape": {"dim": [{"size": "64"}]}}}}}, {"name": "ConstantFolding/StatefulPartitionedCall/Transformer_encoder/bidirectional_2/backward_LSTM_0/while/body/_104/Transformer_encoder/bidirectional_2/backward_LSTM_0/while/lstm_cell/split-folded-0", "op": "Const", "input": ["^Func/StatefulPartitionedCall/Transformer_encoder/bidirectional_2/backward_LSTM_0/while/body/_104/input_control_node/_398", "^StatefulPartitionedCall/Transformer_encoder/bidirectional_2/backward_LSTM_0/while/enter/_113"], "attr": {"dtype": {"type": "DT_FLOAT"}, "value": {"tensor": {"dtype": "DT_FLOAT", "tensorShape": {"dim": [{"size": "128"}, {"size": "64"}]}}}}}, {"name": "ConstantFolding/StatefulPartitionedCall/Transformer_encoder/bidirectional_2/backward_LSTM_0/while/body/_104/Transformer_encoder/bidirectional_2/backward_LSTM_0/while/lstm_cell/split_1-folded-0", "op": "Const", "input": ["^Func/StatefulPartitionedCall/Transformer_encoder/bidirectional_2/backward_LSTM_0/while/body/_104/input_control_node/_398", "^StatefulPartitionedCall/Transformer_encoder/bidirectional_2/backward_LSTM_0/while/enter/_114"], "attr": {"dtype": {"type": "DT_FLOAT"}, "value": {"tensor": {"dtype": "DT_FLOAT", "tensorShape": {"dim": [{"size": "64"}]}}}}}, {"name": "StatefulPartitionedCall/Transformer_encoder/bidirectional_2/backward_LSTM_0/while/body/_104/Transformer_encoder/bidirectional_2/backward_LSTM_0/while/add/y", "op": "Const", "input": ["^Func/StatefulPartitionedCall/Transformer_encoder/bidirectional_2/backward_LSTM_0/while/body/_104/input_control_node/_398"], "attr": {"dtype": {"type": "DT_INT32"}, "value": {"tensor": {"dtype": "DT_INT32", "tensorShape": {}}}}}, {"name": "Func/StatefulPartitionedCall/Transformer_encoder/bidirectional_2/backward_LSTM_0/while/body/_104/input/_401", "op": "Identity", "input": ["StatefulPartitionedCall/Transformer_encoder/bidirectional_2/backward_LSTM_0/while/StatefulPartitionedCall/Transformer_encoder/bidirectional_2/backward_LSTM_0/time_switch/_128:1", "^Func/StatefulPartitionedCall/Transformer_encoder/bidirectional_2/backward_LSTM_0/while/body/_104/input_control_node/_398"], "attr": {"T": {"type": "DT_INT32"}}}, {"name": "StatefulPartitionedCall/Transformer_encoder/bidirectional_2/backward_LSTM_0/while/body/_104/Transformer_encoder/bidirectional_2/backward_LSTM_0/while/TensorArrayV2Read/TensorListGetItem/element_shape", "op": "Const", "input": ["^Func/StatefulPartitionedCall/Transformer_encoder/bidirectional_2/backward_LSTM_0/while/body/_104/input_control_node/_398"], "attr": {"dtype": {"type": "DT_INT32"}, "value": {"tensor": {"dtype": "DT_INT32", "tensorShape": {"dim": [{"size": "2"}]}}}}}, {"name": "ConstantFolding/StatefulPartitionedCall/Transformer_encoder/bidirectional_2/backward_LSTM_0/while/body/_104/Transformer_encoder/bidirectional_2/backward_LSTM_0/while/lstm_cell/split-folded-2", "op": "Const", "input": ["^Func/StatefulPartitionedCall/Transformer_encoder/bidirectional_2/backward_LSTM_0/while/body/_104/input_control_node/_398", "^StatefulPartitionedCall/Transformer_encoder/bidirectional_2/backward_LSTM_0/while/enter/_113"], "attr": {"dtype": {"type": "DT_FLOAT"}, "value": {"tensor": {"dtype": "DT_FLOAT", "tensorShape": {"dim": [{"size": "128"}, {"size": "64"}]}}}}}, {"name": "ConstantFolding/StatefulPartitionedCall/Transformer_encoder/bidirectional_2/backward_LSTM_0/while/body/_104/Transformer_encoder/bidirectional_2/backward_LSTM_0/while/lstm_cell/split_1-folded-2", "op": "Const", "input": ["^Func/StatefulPartitionedCall/Transformer_encoder/bidirectional_2/backward_LSTM_0/while/body/_104/input_control_node/_398", "^StatefulPartitionedCall/Transformer_encoder/bidirectional_2/backward_LSTM_0/while/enter/_114"], "attr": {"value": {"tensor": {"dtype": "DT_FLOAT", "tensorShape": {"dim": [{"size": "64"}]}}}, "dtype": {"type": "DT_FLOAT"}}}, {"name": "Func/StatefulPartitionedCall/Transformer_encoder/bidirectional_2/backward_LSTM_0/while/body/_104/input/_403", "op": "Identity", "input": ["StatefulPartitionedCall/Transformer_encoder/bidirectional_2/backward_LSTM_0/while/StatefulPartitionedCall/Transformer_encoder/bidirectional_2/backward_LSTM_0/zeros_switch/_130:1", "^Func/StatefulPartitionedCall/Transformer_encoder/bidirectional_2/backward_LSTM_0/while/body/_104/input_control_node/_398"], "attr": {"T": {"type": "DT_FLOAT"}}}, {"name": "StatefulPartitionedCall/Transformer_encoder/bidirectional_2/backward_LSTM_0/while/body/_104/Transformer_encoder/bidirectional_2/backward_LSTM_0/while/lstm_cell/strided_slice_3", "op": "Const", "input": ["^StatefulPartitionedCall/Transformer_encoder/bidirectional_2/backward_LSTM_0/while/enter/_115", "^Func/StatefulPartitionedCall/Transformer_encoder/bidirectional_2/backward_LSTM_0/while/body/_104/input_control_node/_398"], "attr": {"dtype": {"type": "DT_FLOAT"}, "value": {"tensor": {"dtype": "DT_FLOAT", "tensorShape": {"dim": [{"size": "64"}, {"size": "64"}]}}}}}, {"name": "StatefulPartitionedCall/Transformer_encoder/bidirectional_2/backward_LSTM_0/while/body/_104/Transformer_encoder/bidirectional_2/backward_LSTM_0/while/lstm_cell/strided_slice_1", "op": "Const", "input": ["^StatefulPartitionedCall/Transformer_encoder/bidirectional_2/backward_LSTM_0/while/enter/_115", "^Func/StatefulPartitionedCall/Transformer_encoder/bidirectional_2/backward_LSTM_0/while/body/_104/input_control_node/_398"], "attr": {"dtype": {"type": "DT_FLOAT"}, "value": {"tensor": {"dtype": "DT_FLOAT", "tensorShape": {"dim": [{"size": "64"}, {"size": "64"}]}}}}}, {"name": "StatefulPartitionedCall/Transformer_encoder/bidirectional_2/backward_LSTM_0/while/body/_104/Transformer_encoder/bidirectional_2/backward_LSTM_0/while/lstm_cell/strided_slice", "op": "Const", "input": ["^StatefulPartitionedCall/Transformer_encoder/bidirectional_2/backward_LSTM_0/while/enter/_115", "^Func/StatefulPartitionedCall/Transformer_encoder/bidirectional_2/backward_LSTM_0/while/body/_104/input_control_node/_398"], "attr": {"dtype": {"type": "DT_FLOAT"}, "value": {"tensor": {"dtype": "DT_FLOAT", "tensorShape": {"dim": [{"size": "64"}, {"size": "64"}]}}}}}, {"name": "StatefulPartitionedCall/Transformer_encoder/bidirectional_2/backward_LSTM_0/while/body/_104/Transformer_encoder/bidirectional_2/backward_LSTM_0/while/lstm_cell/strided_slice_2", "op": "Const", "input": ["^StatefulPartitionedCall/Transformer_encoder/bidirectional_2/backward_LSTM_0/while/enter/_115", "^Func/StatefulPartitionedCall/Transformer_encoder/bidirectional_2/backward_LSTM_0/while/body/_104/input_control_node/_398"], "attr": {"dtype": {"type": "DT_FLOAT"}, "value": {"tensor": {"dtype": "DT_FLOAT", "tensorShape": {"dim": [{"size": "64"}, {"size": "64"}]}}}}}, {"name": "Func/StatefulPartitionedCall/Transformer_encoder/bidirectional_2/backward_LSTM_0/while/body/_104/output_control_node/_421", "op": "NoOp", "input": ["^StatefulPartitionedCall/Transformer_encoder/bidirectional_2/backward_LSTM_0/while/enter/_113", "^Func/StatefulPartitionedCall/Transformer_encoder/bidirectional_2/backward_LSTM_0/while/body/_104/input_control_node/_398", "^StatefulPartitionedCall/Transformer_encoder/bidirectional_2/backward_LSTM_0/while/enter/_114", "^StatefulPartitionedCall/Transformer_encoder/bidirectional_2/backward_LSTM_0/while/enter/_115"], "attr": {"_has_manual_control_dependencies": {"b": true}}}, {"name": "StatefulPartitionedCall/Transformer_encoder/bidirectional_2/backward_LSTM_0/while/body/_104/Transformer_encoder/bidirectional_2/backward_LSTM_0/while/NoOp", "op": "NoOp", "input": ["^StatefulPartitionedCall/Transformer_encoder/bidirectional_2/backward_LSTM_0/while/enter/_113", "^Func/StatefulPartitionedCall/Transformer_encoder/bidirectional_2/backward_LSTM_0/while/body/_104/input_control_node/_398", "^StatefulPartitionedCall/Transformer_encoder/bidirectional_2/backward_LSTM_0/while/enter/_114", "^StatefulPartitionedCall/Transformer_encoder/bidirectional_2/backward_LSTM_0/while/enter/_115"], "attr": {"_has_manual_control_dependencies": {"b": true}}}, {"name": "StatefulPartitionedCall/Transformer_encoder/bidirectional_2/backward_LSTM_0/transpose_1", "op": "Transpose", "input": ["StatefulPartitionedCall/Transformer_encoder/bidirectional_2/backward_LSTM_0/TensorArrayV2Stack/TensorListStack", "StatefulPartitionedCall/Transformer_encoder/bidirectional_2/backward_LSTM_0/transpose_1/perm"], "attr": {"T": {"type": "DT_FLOAT"}, "Tperm": {"type": "DT_INT32"}}}, {"name": "StatefulPartitionedCall/Transformer_encoder/bidirectional_2/forward_LSTM_0/while/body/_55/Transformer_encoder/bidirectional_2/forward_LSTM_0/while/add_1", "op": "AddV2", "input": ["StatefulPartitionedCall/Transformer_encoder/bidirectional_2/forward_LSTM_0/while/StatefulPartitionedCall/Transformer_encoder/bidirectional_2/forward_LSTM_0/while/loop_counter_switch/_77:1", "StatefulPartitionedCall/Transformer_encoder/bidirectional_2/forward_LSTM_0/while/body/_55/Transformer_encoder/bidirectional_2/forward_LSTM_0/while/add_1/y"], "attr": {"T": {"type": "DT_INT32"}}}, {"name": "StatefulPartitionedCall/Transformer_encoder/bidirectional_2/forward_LSTM_0/while/body/_55/Transformer_encoder/bidirectional_2/forward_LSTM_0/while/add", "op": "AddV2", "input": ["Func/StatefulPartitionedCall/Transformer_encoder/bidirectional_2/forward_LSTM_0/while/body/_55/input/_364", "StatefulPartitionedCall/Transformer_encoder/bidirectional_2/forward_LSTM_0/while/body/_55/Transformer_encoder/bidirectional_2/forward_LSTM_0/while/add/y"], "attr": {"T": {"type": "DT_INT32"}}}, {"name": "StatefulPartitionedCall/Transformer_encoder/bidirectional_2/forward_LSTM_0/while/body/_55/Transformer_encoder/bidirectional_2/forward_LSTM_0/while/TensorArrayV2Read/TensorListGetItem", "op": "TensorListGetItem", "input": ["StatefulPartitionedCall/Transformer_encoder/bidirectional_2/forward_LSTM_0/while/StatefulPartitionedCall/Transformer_encoder/bidirectional_2/forward_LSTM_0/TensorArrayUnstack/TensorListFromTensor_switch/_84:1", "Func/StatefulPartitionedCall/Transformer_encoder/bidirectional_2/forward_LSTM_0/while/body/_55/input/_364", "StatefulPartitionedCall/Transformer_encoder/bidirectional_2/forward_LSTM_0/while/body/_55/Transformer_encoder/bidirectional_2/forward_LSTM_0/while/TensorArrayV2Read/TensorListGetItem/element_shape"], "attr": {"element_dtype": {"type": "DT_FLOAT"}}}, {"name": "StatefulPartitionedCall/Transformer_encoder/bidirectional_2/forward_LSTM_0/while/body/_55/Transformer_encoder/bidirectional_2/forward_LSTM_0/while/lstm_cell/MatMul_7", "op": "MatMul", "input": ["Func/StatefulPartitionedCall/Transformer_encoder/bidirectional_2/forward_LSTM_0/while/body/_55/input/_366", "StatefulPartitionedCall/Transformer_encoder/bidirectional_2/forward_LSTM_0/while/body/_55/Transformer_encoder/bidirectional_2/forward_LSTM_0/while/lstm_cell/strided_slice_3"], "device": "/device:CPU:0", "attr": {"transpose_a": {"b": false}, "T": {"type": "DT_FLOAT"}, "grad_a": {"b": false}, "grad_b": {"b": false}, "transpose_b": {"b": false}}}, {"name": "StatefulPartitionedCall/Transformer_encoder/bidirectional_2/forward_LSTM_0/while/body/_55/Transformer_encoder/bidirectional_2/forward_LSTM_0/while/lstm_cell/MatMul_5", "op": "MatMul", "input": ["Func/StatefulPartitionedCall/Transformer_encoder/bidirectional_2/forward_LSTM_0/while/body/_55/input/_366", "StatefulPartitionedCall/Transformer_encoder/bidirectional_2/forward_LSTM_0/while/body/_55/Transformer_encoder/bidirectional_2/forward_LSTM_0/while/lstm_cell/strided_slice_1"], "device": "/device:CPU:0", "attr": {"T": {"type": "DT_FLOAT"}, "grad_b": {"b": false}, "grad_a": {"b": false}, "transpose_b": {"b": false}, "transpose_a": {"b": false}}}, {"name": "StatefulPartitionedCall/Transformer_encoder/bidirectional_2/forward_LSTM_0/while/body/_55/Transformer_encoder/bidirectional_2/forward_LSTM_0/while/lstm_cell/MatMul_4", "op": "MatMul", "input": ["Func/StatefulPartitionedCall/Transformer_encoder/bidirectional_2/forward_LSTM_0/while/body/_55/input/_366", "StatefulPartitionedCall/Transformer_encoder/bidirectional_2/forward_LSTM_0/while/body/_55/Transformer_encoder/bidirectional_2/forward_LSTM_0/while/lstm_cell/strided_slice"], "device": "/device:CPU:0", "attr": {"transpose_b": {"b": false}, "grad_a": {"b": false}, "grad_b": {"b": false}, "transpose_a": {"b": false}, "T": {"type": "DT_FLOAT"}}}, {"name": "StatefulPartitionedCall/Transformer_encoder/bidirectional_2/forward_LSTM_0/while/body/_55/Transformer_encoder/bidirectional_2/forward_LSTM_0/while/lstm_cell/MatMul_6", "op": "MatMul", "input": ["Func/StatefulPartitionedCall/Transformer_encoder/bidirectional_2/forward_LSTM_0/while/body/_55/input/_366", "StatefulPartitionedCall/Transformer_encoder/bidirectional_2/forward_LSTM_0/while/body/_55/Transformer_encoder/bidirectional_2/forward_LSTM_0/while/lstm_cell/strided_slice_2"], "device": "/device:CPU:0", "attr": {"transpose_b": {"b": false}, "grad_b": {"b": false}, "grad_a": {"b": false}, "transpose_a": {"b": false}, "T": {"type": "DT_FLOAT"}}}, {"name": "StatefulPartitionedCall/Transformer_encoder/bidirectional_2/forward_LSTM_0/while/next_iteration/_101", "op": "NextIteration", "input": ["StatefulPartitionedCall/Transformer_encoder/bidirectional_2/forward_LSTM_0/while/StatefulPartitionedCall/Transformer_encoder/bidirectional_2/forward_LSTM_0/strided_slice_1_switch/_83:1", "^Func/StatefulPartitionedCall/Transformer_encoder/bidirectional_2/forward_LSTM_0/while/body/_55/output_control_node/_384", "^Func/StatefulPartitionedCall/Transformer_encoder/bidirectional_2/forward_LSTM_0/while/body/_55/input_control_node/_361"], "attr": {"T": {"type": "DT_INT32"}}}, {"name": "StatefulPartitionedCall/Transformer_encoder/bidirectional_2/forward_LSTM_0/while/next_iteration/_102", "op": "NextIteration", "input": ["StatefulPartitionedCall/Transformer_encoder/bidirectional_2/forward_LSTM_0/while/StatefulPartitionedCall/Transformer_encoder/bidirectional_2/forward_LSTM_0/TensorArrayUnstack/TensorListFromTensor_switch/_84:1", "^Func/StatefulPartitionedCall/Transformer_encoder/bidirectional_2/forward_LSTM_0/while/body/_55/output_control_node/_384", "^Func/StatefulPartitionedCall/Transformer_encoder/bidirectional_2/forward_LSTM_0/while/body/_55/input_control_node/_361"], "attr": {"T": {"type": "DT_VARIANT"}}}, {"name": "StatefulPartitionedCall/Transformer_encoder/bidirectional_2/forward_LSTM_0/while/next_iteration/_96", "op": "NextIteration", "input": ["StatefulPartitionedCall/Transformer_encoder/bidirectional_2/forward_LSTM_0/while/StatefulPartitionedCall/Transformer_encoder/bidirectional_2/forward_LSTM_0/while/maximum_iterations_switch/_78:1", "^Func/StatefulPartitionedCall/Transformer_encoder/bidirectional_2/forward_LSTM_0/while/body/_55/output_control_node/_384", "^StatefulPartitionedCall/Transformer_encoder/bidirectional_2/forward_LSTM_0/while/body/_55/Transformer_encoder/bidirectional_2/forward_LSTM_0/while/NoOp", "^Func/StatefulPartitionedCall/Transformer_encoder/bidirectional_2/forward_LSTM_0/while/body/_55/input_control_node/_361"], "attr": {"T": {"type": "DT_INT32"}}}, {"name": "StatefulPartitionedCall/Transformer_encoder/bidirectional_2/backward_LSTM_0/while/body/_104/Transformer_encoder/bidirectional_2/backward_LSTM_0/while/add_1", "op": "AddV2", "input": ["StatefulPartitionedCall/Transformer_encoder/bidirectional_2/backward_LSTM_0/while/StatefulPartitionedCall/Transformer_encoder/bidirectional_2/backward_LSTM_0/while/loop_counter_switch/_126:1", "StatefulPartitionedCall/Transformer_encoder/bidirectional_2/backward_LSTM_0/while/body/_104/Transformer_encoder/bidirectional_2/backward_LSTM_0/while/add_1/y"], "attr": {"T": {"type": "DT_INT32"}}}, {"name": "StatefulPartitionedCall/Transformer_encoder/bidirectional_2/backward_LSTM_0/while/body/_104/Transformer_encoder/bidirectional_2/backward_LSTM_0/while/add", "op": "AddV2", "input": ["Func/StatefulPartitionedCall/Transformer_encoder/bidirectional_2/backward_LSTM_0/while/body/_104/input/_401", "StatefulPartitionedCall/Transformer_encoder/bidirectional_2/backward_LSTM_0/while/body/_104/Transformer_encoder/bidirectional_2/backward_LSTM_0/while/add/y"], "attr": {"T": {"type": "DT_INT32"}}}, {"name": "StatefulPartitionedCall/Transformer_encoder/bidirectional_2/backward_LSTM_0/while/body/_104/Transformer_encoder/bidirectional_2/backward_LSTM_0/while/TensorArrayV2Read/TensorListGetItem", "op": "TensorListGetItem", "input": ["StatefulPartitionedCall/Transformer_encoder/bidirectional_2/backward_LSTM_0/while/StatefulPartitionedCall/Transformer_encoder/bidirectional_2/backward_LSTM_0/TensorArrayUnstack/TensorListFromTensor_switch/_133:1", "Func/StatefulPartitionedCall/Transformer_encoder/bidirectional_2/backward_LSTM_0/while/body/_104/input/_401", "StatefulPartitionedCall/Transformer_encoder/bidirectional_2/backward_LSTM_0/while/body/_104/Transformer_encoder/bidirectional_2/backward_LSTM_0/while/TensorArrayV2Read/TensorListGetItem/element_shape"], "attr": {"element_dtype": {"type": "DT_FLOAT"}}}, {"name": "StatefulPartitionedCall/Transformer_encoder/bidirectional_2/backward_LSTM_0/while/body/_104/Transformer_encoder/bidirectional_2/backward_LSTM_0/while/lstm_cell/MatMul_7", "op": "MatMul", "input": ["Func/StatefulPartitionedCall/Transformer_encoder/bidirectional_2/backward_LSTM_0/while/body/_104/input/_403", "StatefulPartitionedCall/Transformer_encoder/bidirectional_2/backward_LSTM_0/while/body/_104/Transformer_encoder/bidirectional_2/backward_LSTM_0/while/lstm_cell/strided_slice_3"], "device": "/device:CPU:0", "attr": {"transpose_a": {"b": false}, "transpose_b": {"b": false}, "T": {"type": "DT_FLOAT"}, "grad_b": {"b": false}, "grad_a": {"b": false}}}, {"name": "StatefulPartitionedCall/Transformer_encoder/bidirectional_2/backward_LSTM_0/while/body/_104/Transformer_encoder/bidirectional_2/backward_LSTM_0/while/lstm_cell/MatMul_5", "op": "MatMul", "input": ["Func/StatefulPartitionedCall/Transformer_encoder/bidirectional_2/backward_LSTM_0/while/body/_104/input/_403", "StatefulPartitionedCall/Transformer_encoder/bidirectional_2/backward_LSTM_0/while/body/_104/Transformer_encoder/bidirectional_2/backward_LSTM_0/while/lstm_cell/strided_slice_1"], "device": "/device:CPU:0", "attr": {"transpose_a": {"b": false}, "grad_b": {"b": false}, "grad_a": {"b": false}, "transpose_b": {"b": false}, "T": {"type": "DT_FLOAT"}}}, {"name": "StatefulPartitionedCall/Transformer_encoder/bidirectional_2/backward_LSTM_0/while/body/_104/Transformer_encoder/bidirectional_2/backward_LSTM_0/while/lstm_cell/MatMul_4", "op": "MatMul", "input": ["Func/StatefulPartitionedCall/Transformer_encoder/bidirectional_2/backward_LSTM_0/while/body/_104/input/_403", "StatefulPartitionedCall/Transformer_encoder/bidirectional_2/backward_LSTM_0/while/body/_104/Transformer_encoder/bidirectional_2/backward_LSTM_0/while/lstm_cell/strided_slice"], "device": "/device:CPU:0", "attr": {"grad_b": {"b": false}, "grad_a": {"b": false}, "transpose_b": {"b": false}, "transpose_a": {"b": false}, "T": {"type": "DT_FLOAT"}}}, {"name": "StatefulPartitionedCall/Transformer_encoder/bidirectional_2/backward_LSTM_0/while/body/_104/Transformer_encoder/bidirectional_2/backward_LSTM_0/while/lstm_cell/MatMul_6", "op": "MatMul", "input": ["Func/StatefulPartitionedCall/Transformer_encoder/bidirectional_2/backward_LSTM_0/while/body/_104/input/_403", "StatefulPartitionedCall/Transformer_encoder/bidirectional_2/backward_LSTM_0/while/body/_104/Transformer_encoder/bidirectional_2/backward_LSTM_0/while/lstm_cell/strided_slice_2"], "device": "/device:CPU:0", "attr": {"grad_b": {"b": false}, "T": {"type": "DT_FLOAT"}, "grad_a": {"b": false}, "transpose_b": {"b": false}, "transpose_a": {"b": false}}}, {"name": "StatefulPartitionedCall/Transformer_encoder/bidirectional_2/backward_LSTM_0/while/next_iteration/_150", "op": "NextIteration", "input": ["StatefulPartitionedCall/Transformer_encoder/bidirectional_2/backward_LSTM_0/while/StatefulPartitionedCall/Transformer_encoder/bidirectional_2/backward_LSTM_0/strided_slice_1_switch/_132:1", "^Func/StatefulPartitionedCall/Transformer_encoder/bidirectional_2/backward_LSTM_0/while/body/_104/output_control_node/_421", "^Func/StatefulPartitionedCall/Transformer_encoder/bidirectional_2/backward_LSTM_0/while/body/_104/input_control_node/_398"], "attr": {"T": {"type": "DT_INT32"}}}, {"name": "StatefulPartitionedCall/Transformer_encoder/bidirectional_2/backward_LSTM_0/while/next_iteration/_151", "op": "NextIteration", "input": ["StatefulPartitionedCall/Transformer_encoder/bidirectional_2/backward_LSTM_0/while/StatefulPartitionedCall/Transformer_encoder/bidirectional_2/backward_LSTM_0/TensorArrayUnstack/TensorListFromTensor_switch/_133:1", "^Func/StatefulPartitionedCall/Transformer_encoder/bidirectional_2/backward_LSTM_0/while/body/_104/output_control_node/_421", "^Func/StatefulPartitionedCall/Transformer_encoder/bidirectional_2/backward_LSTM_0/while/body/_104/input_control_node/_398"], "attr": {"T": {"type": "DT_VARIANT"}}}, {"name": "StatefulPartitionedCall/Transformer_encoder/bidirectional_2/backward_LSTM_0/while/next_iteration/_145", "op": "NextIteration", "input": ["StatefulPartitionedCall/Transformer_encoder/bidirectional_2/backward_LSTM_0/while/StatefulPartitionedCall/Transformer_encoder/bidirectional_2/backward_LSTM_0/while/maximum_iterations_switch/_127:1", "^Func/StatefulPartitionedCall/Transformer_encoder/bidirectional_2/backward_LSTM_0/while/body/_104/output_control_node/_421", "^StatefulPartitionedCall/Transformer_encoder/bidirectional_2/backward_LSTM_0/while/body/_104/Transformer_encoder/bidirectional_2/backward_LSTM_0/while/NoOp", "^Func/StatefulPartitionedCall/Transformer_encoder/bidirectional_2/backward_LSTM_0/while/body/_104/input_control_node/_398"], "attr": {"T": {"type": "DT_INT32"}}}, {"name": "StatefulPartitionedCall/Transformer_encoder/bidirectional_2/ReverseV2", "op": "ReverseV2", "input": ["StatefulPartitionedCall/Transformer_encoder/bidirectional_2/backward_LSTM_0/transpose_1", "StatefulPartitionedCall/Transformer_encoder/bidirectional_2/ReverseV2/axis"], "attr": {"Tidx": {"type": "DT_INT32"}, "T": {"type": "DT_FLOAT"}}}, {"name": "StatefulPartitionedCall/Transformer_encoder/bidirectional_2/forward_LSTM_0/while/next_iteration/_95", "op": "NextIteration", "input": ["StatefulPartitionedCall/Transformer_encoder/bidirectional_2/forward_LSTM_0/while/body/_55/Transformer_encoder/bidirectional_2/forward_LSTM_0/while/add_1", "^Func/StatefulPartitionedCall/Transformer_encoder/bidirectional_2/forward_LSTM_0/while/body/_55/output_control_node/_384", "^StatefulPartitionedCall/Transformer_encoder/bidirectional_2/forward_LSTM_0/while/body/_55/Transformer_encoder/bidirectional_2/forward_LSTM_0/while/NoOp"], "attr": {"T": {"type": "DT_INT32"}}}, {"name": "StatefulPartitionedCall/Transformer_encoder/bidirectional_2/forward_LSTM_0/while/next_iteration/_97", "op": "NextIteration", "input": ["StatefulPartitionedCall/Transformer_encoder/bidirectional_2/forward_LSTM_0/while/body/_55/Transformer_encoder/bidirectional_2/forward_LSTM_0/while/add", "^Func/StatefulPartitionedCall/Transformer_encoder/bidirectional_2/forward_LSTM_0/while/body/_55/output_control_node/_384", "^StatefulPartitionedCall/Transformer_encoder/bidirectional_2/forward_LSTM_0/while/body/_55/Transformer_encoder/bidirectional_2/forward_LSTM_0/while/NoOp"], "attr": {"T": {"type": "DT_INT32"}}}, {"name": "StatefulPartitionedCall/Transformer_encoder/bidirectional_2/forward_LSTM_0/while/body/_55/Transformer_encoder/bidirectional_2/forward_LSTM_0/while/lstm_cell/BiasAdd_3", "op": "_FusedMatMul", "input": ["StatefulPartitionedCall/Transformer_encoder/bidirectional_2/forward_LSTM_0/while/body/_55/Transformer_encoder/bidirectional_2/forward_LSTM_0/while/TensorArrayV2Read/TensorListGetItem", "ConstantFolding/StatefulPartitionedCall/Transformer_encoder/bidirectional_2/forward_LSTM_0/while/body/_55/Transformer_encoder/bidirectional_2/forward_LSTM_0/while/lstm_cell/split-folded-3", "ConstantFolding/StatefulPartitionedCall/Transformer_encoder/bidirectional_2/forward_LSTM_0/while/body/_55/Transformer_encoder/bidirectional_2/forward_LSTM_0/while/lstm_cell/split_1-folded-3"], "device": "/device:CPU:0", "attr": {"T": {"type": "DT_FLOAT"}, "fused_ops": {"list": {"s": ["Qmlhc0FkZA=="]}}, "num_args": {"i": "1"}, "epsilon": {"f": 0.0}, "transpose_a": {"b": false}, "transpose_b": {"b": false}, "leakyrelu_alpha": {"f": 0.2}}}, {"name": "StatefulPartitionedCall/Transformer_encoder/bidirectional_2/forward_LSTM_0/while/body/_55/Transformer_encoder/bidirectional_2/forward_LSTM_0/while/lstm_cell/BiasAdd_1", "op": "_FusedMatMul", "input": ["StatefulPartitionedCall/Transformer_encoder/bidirectional_2/forward_LSTM_0/while/body/_55/Transformer_encoder/bidirectional_2/forward_LSTM_0/while/TensorArrayV2Read/TensorListGetItem", "ConstantFolding/StatefulPartitionedCall/Transformer_encoder/bidirectional_2/forward_LSTM_0/while/body/_55/Transformer_encoder/bidirectional_2/forward_LSTM_0/while/lstm_cell/split-folded-1", "ConstantFolding/StatefulPartitionedCall/Transformer_encoder/bidirectional_2/forward_LSTM_0/while/body/_55/Transformer_encoder/bidirectional_2/forward_LSTM_0/while/lstm_cell/split_1-folded-1"], "device": "/device:CPU:0", "attr": {"transpose_a": {"b": false}, "epsilon": {"f": 0.0}, "transpose_b": {"b": false}, "T": {"type": "DT_FLOAT"}, "fused_ops": {"list": {"s": ["Qmlhc0FkZA=="]}}, "leakyrelu_alpha": {"f": 0.2}, "num_args": {"i": "1"}}}, {"name": "StatefulPartitionedCall/Transformer_encoder/bidirectional_2/forward_LSTM_0/while/body/_55/Transformer_encoder/bidirectional_2/forward_LSTM_0/while/lstm_cell/BiasAdd", "op": "_FusedMatMul", "input": ["StatefulPartitionedCall/Transformer_encoder/bidirectional_2/forward_LSTM_0/while/body/_55/Transformer_encoder/bidirectional_2/forward_LSTM_0/while/TensorArrayV2Read/TensorListGetItem", "ConstantFolding/StatefulPartitionedCall/Transformer_encoder/bidirectional_2/forward_LSTM_0/while/body/_55/Transformer_encoder/bidirectional_2/forward_LSTM_0/while/lstm_cell/split-folded-0", "ConstantFolding/StatefulPartitionedCall/Transformer_encoder/bidirectional_2/forward_LSTM_0/while/body/_55/Transformer_encoder/bidirectional_2/forward_LSTM_0/while/lstm_cell/split_1-folded-0"], "device": "/device:CPU:0", "attr": {"T": {"type": "DT_FLOAT"}, "epsilon": {"f": 0.0}, "fused_ops": {"list": {"s": ["Qmlhc0FkZA=="]}}, "num_args": {"i": "1"}, "transpose_b": {"b": false}, "transpose_a": {"b": false}, "leakyrelu_alpha": {"f": 0.2}}}, {"name": "StatefulPartitionedCall/Transformer_encoder/bidirectional_2/forward_LSTM_0/while/body/_55/Transformer_encoder/bidirectional_2/forward_LSTM_0/while/lstm_cell/BiasAdd_2", "op": "_FusedMatMul", "input": ["StatefulPartitionedCall/Transformer_encoder/bidirectional_2/forward_LSTM_0/while/body/_55/Transformer_encoder/bidirectional_2/forward_LSTM_0/while/TensorArrayV2Read/TensorListGetItem", "ConstantFolding/StatefulPartitionedCall/Transformer_encoder/bidirectional_2/forward_LSTM_0/while/body/_55/Transformer_encoder/bidirectional_2/forward_LSTM_0/while/lstm_cell/split-folded-2", "ConstantFolding/StatefulPartitionedCall/Transformer_encoder/bidirectional_2/forward_LSTM_0/while/body/_55/Transformer_encoder/bidirectional_2/forward_LSTM_0/while/lstm_cell/split_1-folded-2"], "device": "/device:CPU:0", "attr": {"epsilon": {"f": 0.0}, "fused_ops": {"list": {"s": ["Qmlhc0FkZA=="]}}, "transpose_b": {"b": false}, "transpose_a": {"b": false}, "T": {"type": "DT_FLOAT"}, "leakyrelu_alpha": {"f": 0.2}, "num_args": {"i": "1"}}}, {"name": "StatefulPartitionedCall/Transformer_encoder/bidirectional_2/backward_LSTM_0/while/next_iteration/_144", "op": "NextIteration", "input": ["StatefulPartitionedCall/Transformer_encoder/bidirectional_2/backward_LSTM_0/while/body/_104/Transformer_encoder/bidirectional_2/backward_LSTM_0/while/add_1", "^Func/StatefulPartitionedCall/Transformer_encoder/bidirectional_2/backward_LSTM_0/while/body/_104/output_control_node/_421", "^StatefulPartitionedCall/Transformer_encoder/bidirectional_2/backward_LSTM_0/while/body/_104/Transformer_encoder/bidirectional_2/backward_LSTM_0/while/NoOp"], "attr": {"T": {"type": "DT_INT32"}}}, {"name": "StatefulPartitionedCall/Transformer_encoder/bidirectional_2/backward_LSTM_0/while/next_iteration/_146", "op": "NextIteration", "input": ["StatefulPartitionedCall/Transformer_encoder/bidirectional_2/backward_LSTM_0/while/body/_104/Transformer_encoder/bidirectional_2/backward_LSTM_0/while/add", "^Func/StatefulPartitionedCall/Transformer_encoder/bidirectional_2/backward_LSTM_0/while/body/_104/output_control_node/_421", "^StatefulPartitionedCall/Transformer_encoder/bidirectional_2/backward_LSTM_0/while/body/_104/Transformer_encoder/bidirectional_2/backward_LSTM_0/while/NoOp"], "attr": {"T": {"type": "DT_INT32"}}}, {"name": "StatefulPartitionedCall/Transformer_encoder/bidirectional_2/backward_LSTM_0/while/body/_104/Transformer_encoder/bidirectional_2/backward_LSTM_0/while/lstm_cell/BiasAdd_3", "op": "_FusedMatMul", "input": ["StatefulPartitionedCall/Transformer_encoder/bidirectional_2/backward_LSTM_0/while/body/_104/Transformer_encoder/bidirectional_2/backward_LSTM_0/while/TensorArrayV2Read/TensorListGetItem", "ConstantFolding/StatefulPartition…
tionedCall/Transformer_encoder/bidirectional_4/backward_LSTM_2/while/body/_300/Transformer_encoder/bidirectional_4/backward_LSTM_2/while/lstm_cell/mul_6", "op": "Mul", "input": ["StatefulPartitionedCall/Transformer_encoder/bidirectional_4/backward_LSTM_2/while/body/_300/Transformer_encoder/bidirectional_4/backward_LSTM_2/while/lstm_cell/Sigmoid_2", "StatefulPartitionedCall/Transformer_encoder/bidirectional_4/backward_LSTM_2/while/body/_300/Transformer_encoder/bidirectional_4/backward_LSTM_2/while/lstm_cell/Tanh_1"], "attr": {"T": {"type": "DT_FLOAT"}}}, {"name": "StatefulPartitionedCall/Transformer_encoder/bidirectional_4/forward_LSTM_2/while/body/_251/Transformer_encoder/bidirectional_4/forward_LSTM_2/while/lstm_cell/mul_6", "op": "Mul", "input": ["StatefulPartitionedCall/Transformer_encoder/bidirectional_4/forward_LSTM_2/while/body/_251/Transformer_encoder/bidirectional_4/forward_LSTM_2/while/lstm_cell/Sigmoid_2", "StatefulPartitionedCall/Transformer_encoder/bidirectional_4/forward_LSTM_2/while/body/_251/Transformer_encoder/bidirectional_4/forward_LSTM_2/while/lstm_cell/Tanh_1"], "attr": {"T": {"type": "DT_FLOAT"}}}, {"name": "StatefulPartitionedCall/Transformer_encoder/bidirectional_4/backward_LSTM_2/while/body/_300/Transformer_encoder/bidirectional_4/backward_LSTM_2/while/TensorArrayV2Write/TensorListSetItem", "op": "TensorListSetItem", "input": ["StatefulPartitionedCall/Transformer_encoder/bidirectional_4/backward_LSTM_2/while/StatefulPartitionedCall/Transformer_encoder/bidirectional_4/backward_LSTM_2/TensorArrayV2_1_switch/_325:1", "StatefulPartitionedCall/Transformer_encoder/bidirectional_4/backward_LSTM_2/while/body/_300/Transformer_encoder/bidirectional_4/backward_LSTM_2/while/TensorArrayV2Write/TensorListSetItem/index", "StatefulPartitionedCall/Transformer_encoder/bidirectional_4/backward_LSTM_2/while/body/_300/Transformer_encoder/bidirectional_4/backward_LSTM_2/while/lstm_cell/mul_6"], "attr": {"element_dtype": {"type": "DT_FLOAT"}, "resize_if_index_out_of_bounds": {"b": false}}, "experimentalType": {"typeId": "TFT_PRODUCT", "args": [{"typeId": "TFT_ARRAY", "args": [{"typeId": "TFT_TENSOR", "args": [{"typeId": "TFT_FLOAT"}]}]}]}}, {"name": "StatefulPartitionedCall/Transformer_encoder/bidirectional_4/backward_LSTM_2/while/next_iteration/_344", "op": "NextIteration", "input": ["StatefulPartitionedCall/Transformer_encoder/bidirectional_4/backward_LSTM_2/while/body/_300/Transformer_encoder/bidirectional_4/backward_LSTM_2/while/lstm_cell/mul_6", "^Func/StatefulPartitionedCall/Transformer_encoder/bidirectional_4/backward_LSTM_2/while/body/_300/output_control_node/_569", "^StatefulPartitionedCall/Transformer_encoder/bidirectional_4/backward_LSTM_2/while/body/_300/Transformer_encoder/bidirectional_4/backward_LSTM_2/while/NoOp"], "attr": {"T": {"type": "DT_FLOAT"}}}, {"name": "StatefulPartitionedCall/Transformer_encoder/bidirectional_4/forward_LSTM_2/while/body/_251/Transformer_encoder/bidirectional_4/forward_LSTM_2/while/TensorArrayV2Write/TensorListSetItem", "op": "TensorListSetItem", "input": ["StatefulPartitionedCall/Transformer_encoder/bidirectional_4/forward_LSTM_2/while/StatefulPartitionedCall/Transformer_encoder/bidirectional_4/forward_LSTM_2/TensorArrayV2_1_switch/_276:1", "StatefulPartitionedCall/Transformer_encoder/bidirectional_4/forward_LSTM_2/while/body/_251/Transformer_encoder/bidirectional_4/forward_LSTM_2/while/TensorArrayV2Write/TensorListSetItem/index", "StatefulPartitionedCall/Transformer_encoder/bidirectional_4/forward_LSTM_2/while/body/_251/Transformer_encoder/bidirectional_4/forward_LSTM_2/while/lstm_cell/mul_6"], "attr": {"resize_if_index_out_of_bounds": {"b": false}, "element_dtype": {"type": "DT_FLOAT"}}, "experimentalType": {"typeId": "TFT_PRODUCT", "args": [{"typeId": "TFT_ARRAY", "args": [{"typeId": "TFT_TENSOR", "args": [{"typeId": "TFT_FLOAT"}]}]}]}}, {"name": "StatefulPartitionedCall/Transformer_encoder/bidirectional_4/forward_LSTM_2/while/next_iteration/_295", "op": "NextIteration", "input": ["StatefulPartitionedCall/Transformer_encoder/bidirectional_4/forward_LSTM_2/while/body/_251/Transformer_encoder/bidirectional_4/forward_LSTM_2/while/lstm_cell/mul_6", "^Func/StatefulPartitionedCall/Transformer_encoder/bidirectional_4/forward_LSTM_2/while/body/_251/output_control_node/_532", "^StatefulPartitionedCall/Transformer_encoder/bidirectional_4/forward_LSTM_2/while/body/_251/Transformer_encoder/bidirectional_4/forward_LSTM_2/while/NoOp"], "attr": {"T": {"type": "DT_FLOAT"}}}, {"name": "StatefulPartitionedCall/Transformer_encoder/bidirectional_4/backward_LSTM_2/while/next_iteration/_343", "op": "NextIteration", "input": ["StatefulPartitionedCall/Transformer_encoder/bidirectional_4/backward_LSTM_2/while/body/_300/Transformer_encoder/bidirectional_4/backward_LSTM_2/while/TensorArrayV2Write/TensorListSetItem", "^Func/StatefulPartitionedCall/Transformer_encoder/bidirectional_4/backward_LSTM_2/while/body/_300/output_control_node/_569", "^StatefulPartitionedCall/Transformer_encoder/bidirectional_4/backward_LSTM_2/while/body/_300/Transformer_encoder/bidirectional_4/backward_LSTM_2/while/NoOp"], "attr": {"T": {"type": "DT_VARIANT"}}}, {"name": "StatefulPartitionedCall/Transformer_encoder/bidirectional_4/forward_LSTM_2/while/next_iteration/_294", "op": "NextIteration", "input": ["StatefulPartitionedCall/Transformer_encoder/bidirectional_4/forward_LSTM_2/while/body/_251/Transformer_encoder/bidirectional_4/forward_LSTM_2/while/TensorArrayV2Write/TensorListSetItem", "^Func/StatefulPartitionedCall/Transformer_encoder/bidirectional_4/forward_LSTM_2/while/body/_251/output_control_node/_532", "^StatefulPartitionedCall/Transformer_encoder/bidirectional_4/forward_LSTM_2/while/body/_251/Transformer_encoder/bidirectional_4/forward_LSTM_2/while/NoOp"], "attr": {"T": {"type": "DT_VARIANT"}}}], "library": {}, "versions": {"producer": 1766}}, "weightsManifest": [{"paths": ["group1-shard1of3.bin", "group1-shard2of3.bin", "group1-shard3of3.bin"], "weights": [{"name": "StatefulPartitionedCall/Transformer_encoder/bidirectional_4/forward_LSTM_2/TensorArrayV2Stack/TensorListStack/element_shape", "shape": [2], "dtype": "int32"}, {"name": "StatefulPartitionedCall/Transformer_encoder/bidirectional_4/forward_LSTM_2/strided_slice_3/stack", "shape": [1], "dtype": "int32"}, {"name": "StatefulPartitionedCall/Transformer_encoder/bidirectional_4/forward_LSTM_2/strided_slice_3/stack_1", "shape": [1], "dtype": "int32"}, {"name": "StatefulPartitionedCall/Transformer_encoder/bidirectional_4/forward_LSTM_2/strided_slice_3/stack_2", "shape": [1], "dtype": "int32"}, {"name": "StatefulPartitionedCall/Transformer_encoder/bidirectional_4/backward_LSTM_2/TensorArrayV2Stack/TensorListStack/element_shape", "shape": [2], "dtype": "int32"}, {"name": "StatefulPartitionedCall/Transformer_encoder/bidirectional_4/backward_LSTM_2/strided_slice_3/stack", "shape": [1], "dtype": "int32"}, {"name": "StatefulPartitionedCall/Transformer_encoder/bidirectional_4/backward_LSTM_2/strided_slice_3/stack_1", "shape": [1], "dtype": "int32"}, {"name": "StatefulPartitionedCall/Transformer_encoder/bidirectional_4/backward_LSTM_2/strided_slice_3/stack_2", "shape": [1], "dtype": "int32"}, {"name": "StatefulPartitionedCall/Transformer_encoder/bidirectional_4/concat/axis", "shape": [], "dtype": "int32"}, {"name": "StatefulPartitionedCall/Transformer_encoder/dense_4/MatMul/ReadVariableOp", "shape": [128, 128], "dtype": "float32"}, {"name": "StatefulPartitionedCall/Transformer_encoder/dense_4/BiasAdd/ReadVariableOp", "shape": [128], "dtype": "float32"}, {"name": "StatefulPartitionedCall/Transformer_encoder/dense_5/MatMul/ReadVariableOp", "shape": [128, 64], "dtype": "float32"}, {"name": "StatefulPartitionedCall/Transformer_encoder/dense_5/BiasAdd/ReadVariableOp", "shape": [64], "dtype": "float32"}, {"name": "StatefulPartitionedCall/Transformer_encoder/dense_6/MatMul/ReadVariableOp", "shape": [64, 32], "dtype": "float32"}, {"name": "StatefulPartitionedCall/Transformer_encoder/dense_6/BiasAdd/ReadVariableOp", "shape": [32], "dtype": "float32"}, {"name": "StatefulPartitionedCall/Transformer_encoder/dense_7/MatMul/ReadVariableOp", "shape": [32, 1], "dtype": "float32"}, {"name": "StatefulPartitionedCall/Transformer_encoder/dense_7/BiasAdd/ReadVariableOp", "shape": [1], "dtype": "float32"}, {"name": "StatefulPartitionedCall/Transformer_encoder/bidirectional_4/backward_LSTM_2/time", "shape": [], "dtype": "int32"}, {"name": "StatefulPartitionedCall/Transformer_encoder/bidirectional_4/backward_LSTM_2/while/loop_counter", "shape": [], "dtype": "int32"}, {"name": "StatefulPartitionedCall/Transformer_encoder/bidirectional_4/backward_LSTM_2/while/maximum_iterations", "shape": [], "dtype": "int32"}, {"name": "Func/StatefulPartitionedCall/input/_41", "shape": [128, 256], "dtype": "float32"}, {"name": "Func/StatefulPartitionedCall/input/_42", "shape": [256], "dtype": "float32"}, {"name": "Func/StatefulPartitionedCall/input/_43", "shape": [64, 256], "dtype": "float32"}, {"name": "StatefulPartitionedCall/Transformer_encoder/bidirectional_4/backward_LSTM_2/strided_slice_1/stack", "shape": [1], "dtype": "int32"}, {"name": "StatefulPartitionedCall/Transformer_encoder/bidirectional_4/backward_LSTM_2/strided_slice_1/stack_1", "shape": [1], "dtype": "int32"}, {"name": "StatefulPartitionedCall/Transformer_encoder/bidirectional_4/backward_LSTM_2/strided_slice_1/stack_2", "shape": [1], "dtype": "int32"}, {"name": "StatefulPartitionedCall/Transformer_encoder/bidirectional_4/backward_LSTM_2/zeros_1/packed/1", "shape": [], "dtype": "int32"}, {"name": "StatefulPartitionedCall/Transformer_encoder/bidirectional_4/backward_LSTM_2/zeros_1/Const", "shape": [], "dtype": "float32"}, {"name": "StatefulPartitionedCall/Transformer_encoder/bidirectional_4/backward_LSTM_2/strided_slice/stack", "shape": [1], "dtype": "int32"}, {"name": "StatefulPartitionedCall/Transformer_encoder/bidirectional_4/backward_LSTM_2/strided_slice/stack_1", "shape": [1], "dtype": "int32"}, {"name": "StatefulPartitionedCall/Transformer_encoder/bidirectional_4/backward_LSTM_2/strided_slice/stack_2", "shape": [1], "dtype": "int32"}, {"name": "StatefulPartitionedCall/Transformer_encoder/bidirectional_4/backward_LSTM_2/zeros/packed/1", "shape": [], "dtype": "int32"}, {"name": "StatefulPartitionedCall/Transformer_encoder/bidirectional_4/backward_LSTM_2/zeros/Const", "shape": [], "dtype": "float32"}, {"name": "StatefulPartitionedCall/Transformer_encoder/bidirectional_4/backward_LSTM_2/transpose/perm", "shape": [3], "dtype": "int32"}, {"name": "StatefulPartitionedCall/Transformer_encoder/bidirectional_4/backward_LSTM_2/ReverseV2/axis", "shape": [1], "dtype": "int32"}, {"name": "StatefulPartitionedCall/Transformer_encoder/bidirectional_4/backward_LSTM_2/TensorArrayUnstack/TensorListFromTensor/element_shape", "shape": [2], "dtype": "int32"}, {"name": "StatefulPartitionedCall/Transformer_encoder/bidirectional_4/backward_LSTM_2/TensorArrayV2_1/element_shape", "shape": [2], "dtype": "int32"}, {"name": "StatefulPartitionedCall/Transformer_encoder/bidirectional_4/backward_LSTM_2/TensorArrayV2_1/num_elements", "shape": [], "dtype": "int32"}, {"name": "StatefulPartitionedCall/Transformer_encoder/bidirectional_4/forward_LSTM_2/while/loop_counter", "shape": [], "dtype": "int32"}, {"name": "StatefulPartitionedCall/Transformer_encoder/bidirectional_4/forward_LSTM_2/while/maximum_iterations", "shape": [], "dtype": "int32"}, {"name": "StatefulPartitionedCall/Transformer_encoder/bidirectional_4/forward_LSTM_2/time", "shape": [], "dtype": "int32"}, {"name": "Func/StatefulPartitionedCall/input/_38", "shape": [128, 256], "dtype": "float32"}, {"name": "Func/StatefulPartitionedCall/input/_39", "shape": [256], "dtype": "float32"}, {"name": "Func/StatefulPartitionedCall/input/_40", "shape": [64, 256], "dtype": "float32"}, {"name": "StatefulPartitionedCall/Transformer_encoder/bidirectional_4/forward_LSTM_2/strided_slice_1/stack", "shape": [1], "dtype": "int32"}, {"name": "StatefulPartitionedCall/Transformer_encoder/bidirectional_4/forward_LSTM_2/strided_slice_1/stack_1", "shape": [1], "dtype": "int32"}, {"name": "StatefulPartitionedCall/Transformer_encoder/bidirectional_4/forward_LSTM_2/strided_slice_1/stack_2", "shape": [1], "dtype": "int32"}, {"name": "StatefulPartitionedCall/Transformer_encoder/bidirectional_4/forward_LSTM_2/zeros_1/packed/1", "shape": [], "dtype": "int32"}, {"name": "StatefulPartitionedCall/Transformer_encoder/bidirectional_4/forward_LSTM_2/zeros_1/Const", "shape": [], "dtype": "float32"}, {"name": "StatefulPartitionedCall/Transformer_encoder/bidirectional_4/forward_LSTM_2/strided_slice/stack", "shape": [1], "dtype": "int32"}, {"name": "StatefulPartitionedCall/Transformer_encoder/bidirectional_4/forward_LSTM_2/strided_slice/stack_1", "shape": [1], "dtype": "int32"}, {"name": "StatefulPartitionedCall/Transformer_encoder/bidirectional_4/forward_LSTM_2/strided_slice/stack_2", "shape": [1], "dtype": "int32"}, {"name": "StatefulPartitionedCall/Transformer_encoder/bidirectional_4/forward_LSTM_2/zeros/packed/1", "shape": [], "dtype": "int32"}, {"name": "StatefulPartitionedCall/Transformer_encoder/bidirectional_4/forward_LSTM_2/zeros/Const", "shape": [], "dtype": "float32"}, {"name": "StatefulPartitionedCall/Transformer_encoder/bidirectional_3/forward_LSTM_1/while/loop_counter", "shape": [], "dtype": "int32"}, {"name": "StatefulPartitionedCall/Transformer_encoder/bidirectional_3/forward_LSTM_1/while/maximum_iterations", "shape": [], "dtype": "int32"}, {"name": "StatefulPartitionedCall/Transformer_encoder/bidirectional_3/forward_LSTM_1/time", "shape": [], "dtype": "int32"}, {"name": "Func/StatefulPartitionedCall/input/_32", "shape": [128, 256], "dtype": "float32"}, {"name": "Func/StatefulPartitionedCall/input/_33", "shape": [256], "dtype": "float32"}, {"name": "Func/StatefulPartitionedCall/input/_34", "shape": [64, 256], "dtype": "float32"}, {"name": "StatefulPartitionedCall/Transformer_encoder/bidirectional_3/forward_LSTM_1/TensorArrayV2_1/element_shape", "shape": [2], "dtype": "int32"}, {"name": "StatefulPartitionedCall/Transformer_encoder/bidirectional_3/forward_LSTM_1/strided_slice_1/stack", "shape": [1], "dtype": "int32"}, {"name": "StatefulPartitionedCall/Transformer_encoder/bidirectional_3/forward_LSTM_1/strided_slice_1/stack_1", "shape": [1], "dtype": "int32"}, {"name": "StatefulPartitionedCall/Transformer_encoder/bidirectional_3/forward_LSTM_1/strided_slice_1/stack_2", "shape": [1], "dtype": "int32"}, {"name": "StatefulPartitionedCall/Transformer_encoder/bidirectional_3/forward_LSTM_1/zeros_1/packed/1", "shape": [], "dtype": "int32"}, {"name": "StatefulPartitionedCall/Transformer_encoder/bidirectional_3/forward_LSTM_1/zeros_1/Const", "shape": [], "dtype": "float32"}, {"name": "StatefulPartitionedCall/Transformer_encoder/bidirectional_3/forward_LSTM_1/strided_slice/stack", "shape": [1], "dtype": "int32"}, {"name": "StatefulPartitionedCall/Transformer_encoder/bidirectional_3/forward_LSTM_1/strided_slice/stack_1", "shape": [1], "dtype": "int32"}, {"name": "StatefulPartitionedCall/Transformer_encoder/bidirectional_3/forward_LSTM_1/strided_slice/stack_2", "shape": [1], "dtype": "int32"}, {"name": "StatefulPartitionedCall/Transformer_encoder/bidirectional_3/forward_LSTM_1/zeros/packed/1", "shape": [], "dtype": "int32"}, {"name": "StatefulPartitionedCall/Transformer_encoder/bidirectional_3/forward_LSTM_1/zeros/Const", "shape": [], "dtype": "float32"}, {"name": "StatefulPartitionedCall/Transformer_encoder/bidirectional_3/forward_LSTM_1/transpose/perm", "shape": [3], "dtype": "int32"}, {"name": "StatefulPartitionedCall/Transformer_encoder/bidirectional_3/forward_LSTM_1/TensorArrayUnstack/TensorListFromTensor/element_shape", "shape": [2], "dtype": "int32"}, {"name": "StatefulPartitionedCall/Transformer_encoder/bidirectional_3/forward_LSTM_1/TensorArrayV2Stack/TensorListStack/element_shape", "shape": [2], "dtype": "int32"}, {"name": "StatefulPartitionedCall/Transformer_encoder/bidirectional_3/forward_LSTM_1/transpose_1/perm", "shape": [3], "dtype": "int32"}, {"name": "StatefulPartitionedCall/Transformer_encoder/bidirectional_3/backward_LSTM_1/while/loop_counter", "shape": [], "dtype": "int32"}, {"name": "StatefulPartitionedCall/Transformer_encoder/bidirectional_3/backward_LSTM_1/while/maximum_iterations", "shape": [], "dtype": "int32"}, {"name": "StatefulPartitionedCall/Transformer_encoder/bidirectional_3/backward_LSTM_1/time", "shape": [], "dtype": "int32"}, {"name": "Func/StatefulPartitionedCall/input/_35", "shape": [128, 256], "dtype": "float32"}, {"name": "Func/StatefulPartitionedCall/input/_36", "shape": [256], "dtype": "float32"}, {"name": "Func/StatefulPartitionedCall/input/_37", "shape": [64, 256], "dtype": "float32"}, {"name": "StatefulPartitionedCall/Transformer_encoder/bidirectional_3/backward_LSTM_1/TensorArrayV2_1/element_shape", "shape": [2], "dtype": "int32"}, {"name": "StatefulPartitionedCall/Transformer_encoder/bidirectional_3/backward_LSTM_1/strided_slice_1/stack", "shape": [1], "dtype": "int32"}, {"name": "StatefulPartitionedCall/Transformer_encoder/bidirectional_3/backward_LSTM_1/strided_slice_1/stack_1", "shape": [1], "dtype": "int32"}, {"name": "StatefulPartitionedCall/Transformer_encoder/bidirectional_3/backward_LSTM_1/strided_slice_1/stack_2", "shape": [1], "dtype": "int32"}, {"name": "StatefulPartitionedCall/Transformer_encoder/bidirectional_3/backward_LSTM_1/zeros_1/packed/1", "shape": [], "dtype": "int32"}, {"name": "StatefulPartitionedCall/Transformer_encoder/bidirectional_3/backward_LSTM_1/zeros_1/Const", "shape": [], "dtype": "float32"}, {"name": "StatefulPartitionedCall/Transformer_encoder/bidirectional_3/backward_LSTM_1/strided_slice/stack", "shape": [1], "dtype": "int32"}, {"name": "StatefulPartitionedCall/Transformer_encoder/bidirectional_3/backward_LSTM_1/strided_slice/stack_1", "shape": [1], "dtype": "int32"}, {"name": "StatefulPartitionedCall/Transformer_encoder/bidirectional_3/backward_LSTM_1/strided_slice/stack_2", "shape": [1], "dtype": "int32"}, {"name": "StatefulPartitionedCall/Transformer_encoder/bidirectional_3/backward_LSTM_1/zeros/packed/1", "shape": [], "dtype": "int32"}, {"name": "StatefulPartitionedCall/Transformer_encoder/bidirectional_3/backward_LSTM_1/zeros/Const", "shape": [], "dtype": "float32"}, {"name": "StatefulPartitionedCall/Transformer_encoder/bidirectional_2/forward_LSTM_0/while/loop_counter", "shape": [], "dtype": "int32"}, {"name": "StatefulPartitionedCall/Transformer_encoder/bidirectional_2/forward_LSTM_0/while/maximum_iterations", "shape": [], "dtype": "int32"}, {"name": "StatefulPartitionedCall/Transformer_encoder/bidirectional_2/forward_LSTM_0/time", "shape": [], "dtype": "int32"}, {"name": "Func/StatefulPartitionedCall/input/_26", "shape": [128, 256], "dtype": "float32"}, {"name": "Func/StatefulPartitionedCall/input/_27", "shape": [256], "dtype": "float32"}, {"name": "Func/StatefulPartitionedCall/input/_28", "shape": [64, 256], "dtype": "float32"}, {"name": "StatefulPartitionedCall/Transformer_encoder/bidirectional_2/forward_LSTM_0/TensorArrayV2_1/element_shape", "shape": [2], "dtype": "int32"}, {"name": "StatefulPartitionedCall/Transformer_encoder/bidirectional_2/forward_LSTM_0/strided_slice_1/stack", "shape": [1], "dtype": "int32"}, {"name": "StatefulPartitionedCall/Transformer_encoder/bidirectional_2/forward_LSTM_0/strided_slice_1/stack_1", "shape": [1], "dtype": "int32"}, {"name": "StatefulPartitionedCall/Transformer_encoder/bidirectional_2/forward_LSTM_0/strided_slice_1/stack_2", "shape": [1], "dtype": "int32"}, {"name": "StatefulPartitionedCall/Transformer_encoder/bidirectional_2/forward_LSTM_0/zeros_1/packed/1", "shape": [], "dtype": "int32"}, {"name": "StatefulPartitionedCall/Transformer_encoder/bidirectional_2/forward_LSTM_0/zeros_1/Const", "shape": [], "dtype": "float32"}, {"name": "StatefulPartitionedCall/Transformer_encoder/bidirectional_2/forward_LSTM_0/strided_slice/stack", "shape": [1], "dtype": "int32"}, {"name": "StatefulPartitionedCall/Transformer_encoder/bidirectional_2/forward_LSTM_0/strided_slice/stack_1", "shape": [1], "dtype": "int32"}, {"name": "StatefulPartitionedCall/Transformer_encoder/bidirectional_2/forward_LSTM_0/strided_slice/stack_2", "shape": [1], "dtype": "int32"}, {"name": "StatefulPartitionedCall/Transformer_encoder/bidirectional_2/forward_LSTM_0/zeros/packed/1", "shape": [], "dtype": "int32"}, {"name": "StatefulPartitionedCall/Transformer_encoder/bidirectional_2/forward_LSTM_0/zeros/Const", "shape": [], "dtype": "float32"}, {"name": "StatefulPartitionedCall/Transformer_encoder/bidirectional_2/forward_LSTM_0/transpose/perm", "shape": [3], "dtype": "int32"}, {"name": "StatefulPartitionedCall/Transformer_encoder/bidirectional_2/forward_LSTM_0/TensorArrayUnstack/TensorListFromTensor/element_shape", "shape": [2], "dtype": "int32"}, {"name": "StatefulPartitionedCall/Transformer_encoder/bidirectional_2/forward_LSTM_0/TensorArrayV2Stack/TensorListStack/element_shape", "shape": [2], "dtype": "int32"}, {"name": "StatefulPartitionedCall/Transformer_encoder/bidirectional_2/forward_LSTM_0/transpose_1/perm", "shape": [3], "dtype": "int32"}, {"name": "StatefulPartitionedCall/Transformer_encoder/bidirectional_2/backward_LSTM_0/while/loop_counter", "shape": [], "dtype": "int32"}, {"name": "StatefulPartitionedCall/Transformer_encoder/bidirectional_2/backward_LSTM_0/while/maximum_iterations", "shape": [], "dtype": "int32"}, {"name": "StatefulPartitionedCall/Transformer_encoder/bidirectional_2/backward_LSTM_0/time", "shape": [], "dtype": "int32"}, {"name": "Func/StatefulPartitionedCall/input/_29", "shape": [128, 256], "dtype": "float32"}, {"name": "Func/StatefulPartitionedCall/input/_30", "shape": [256], "dtype": "float32"}, {"name": "Func/StatefulPartitionedCall/input/_31", "shape": [64, 256], "dtype": "float32"}, {"name": "StatefulPartitionedCall/Transformer_encoder/bidirectional_2/backward_LSTM_0/TensorArrayV2_1/element_shape", "shape": [2], "dtype": "int32"}, {"name": "StatefulPartitionedCall/Transformer_encoder/bidirectional_2/backward_LSTM_0/strided_slice_1/stack", "shape": [1], "dtype": "int32"}, {"name": "StatefulPartitionedCall/Transformer_encoder/bidirectional_2/backward_LSTM_0/strided_slice_1/stack_1", "shape": [1], "dtype": "int32"}, {"name": "StatefulPartitionedCall/Transformer_encoder/bidirectional_2/backward_LSTM_0/strided_slice_1/stack_2", "shape": [1], "dtype": "int32"}, {"name": "StatefulPartitionedCall/Transformer_encoder/bidirectional_2/backward_LSTM_0/zeros_1/packed/1", "shape": [], "dtype": "int32"}, {"name": "StatefulPartitionedCall/Transformer_encoder/bidirectional_2/backward_LSTM_0/zeros_1/Const", "shape": [], "dtype": "float32"}, {"name": "StatefulPartitionedCall/Transformer_encoder/bidirectional_2/backward_LSTM_0/strided_slice/stack", "shape": [1], "dtype": "int32"}, {"name": "StatefulPartitionedCall/Transformer_encoder/bidirectional_2/backward_LSTM_0/strided_slice/stack_1", "shape": [1], "dtype": "int32"}, {"name": "StatefulPartitionedCall/Transformer_encoder/bidirectional_2/backward_LSTM_0/strided_slice/stack_2", "shape": [1], "dtype": "int32"}, {"name": "StatefulPartitionedCall/Transformer_encoder/bidirectional_2/backward_LSTM_0/zeros/packed/1", "shape": [], "dtype": "int32"}, {"name": "StatefulPartitionedCall/Transformer_encoder/bidirectional_2/backward_LSTM_0/zeros/Const", "shape": [], "dtype": "float32"}, {"name": "StatefulPartitionedCall/Transformer_encoder/conv1d_4/Conv1D/ExpandDims/dim", "shape": [], "dtype": "int32"}, {"name": "StatefulPartitionedCall/Transformer_encoder/conv1d_4/Conv1D/ExpandDims_1", "shape": [1, 5, 100, 128], "dtype": "float32"}, {"name": "StatefulPartitionedCall/Transformer_encoder/conv1d_4/BiasAdd/ReadVariableOp", "shape": [128], "dtype": "float32"}, {"name": "StatefulPartitionedCall/Transformer_encoder/batch_normalization_4/batchnorm/mul", "shape": [128], "dtype": "float32"}, {"name": "StatefulPartitionedCall/Transformer_encoder/batch_normalization_4/batchnorm/sub", "shape": [128], "dtype": "float32"}, {"name": "StatefulPartitionedCall/Transformer_encoder/conv1d_5/Conv1D/ExpandDims/dim", "shape": [], "dtype": "int32"}, {"name": "StatefulPartitionedCall/Transformer_encoder/conv1d_5/Conv1D/ExpandDims_1", "shape": [1, 5, 128, 128], "dtype": "float32"}, {"name": "StatefulPartitionedCall/Transformer_encoder/conv1d_5/BiasAdd/ReadVariableOp", "shape": [128], "dtype": "float32"}, {"name": "StatefulPartitionedCall/Transformer_encoder/batch_normalization_5/batchnorm/mul", "shape": [128], "dtype": "float32"}, {"name": "StatefulPartitionedCall/Transformer_encoder/batch_normalization_5/batchnorm/sub", "shape": [128], "dtype": "float32"}, {"name": "StatefulPartitionedCall/Transformer_encoder/conv1d_6/Conv1D/ExpandDims/dim", "shape": [], "dtype": "int32"}, {"name": "StatefulPartitionedCall/Transformer_encoder/conv1d_6/Conv1D/ExpandDims_1", "shape": [1, 5, 128, 128], "dtype": "float32"}, {"name": "StatefulPartitionedCall/Transformer_encoder/conv1d_6/BiasAdd/ReadVariableOp", "shape": [128], "dtype": "float32"}, {"name": "StatefulPartitionedCall/Transformer_encoder/batch_normalization_6/batchnorm/mul", "shape": [128], "dtype": "float32"}, {"name": "StatefulPartitionedCall/Transformer_encoder/batch_normalization_6/batchnorm/sub", "shape": [128], "dtype": "float32"}, {"name": "unknown", "shape": [15001, 100], "dtype": "float32"}, {"name": "StatefulPartitionedCall/Transformer_encoder/embedding_1/embedding_lookup/axis", "shape": [], "dtype": "int32"}, {"name": "StatefulPartitionedCall/Transformer_encoder/conv1d_7/Conv1D/ExpandDims/dim", "shape": [], "dtype": "int32"}, {"name": "StatefulPartitionedCall/Transformer_encoder/conv1d_7/Conv1D/ExpandDims_1", "shape": [1, 5, 100, 128], "dtype": "float32"}, {"name": "StatefulPartitionedCall/Transformer_encoder/conv1d_7/BiasAdd/ReadVariableOp", "shape": [128], "dtype": "float32"}, {"name": "StatefulPartitionedCall/Transformer_encoder/batch_normalization_7/batchnorm/mul", "shape": [128], "dtype": "float32"}, {"name": "StatefulPartitionedCall/Transformer_encoder/batch_normalization_7/batchnorm/sub", "shape": [128], "dtype": "float32"}, {"name": "StatefulPartitionedCall/Transformer_encoder/bidirectional_2/backward_LSTM_0/transpose/perm", "shape": [3], "dtype": "int32"}, {"name": "StatefulPartitionedCall/Transformer_encoder/bidirectional_2/backward_LSTM_0/ReverseV2/axis", "shape": [1], "dtype": "int32"}, {"name": "StatefulPartitionedCall/Transformer_encoder/bidirectional_2/backward_LSTM_0/TensorArrayUnstack/TensorListFromTensor/element_shape", "shape": [2], "dtype": "int32"}, {"name": "StatefulPartitionedCall/Transformer_encoder/bidirectional_2/backward_LSTM_0/TensorArrayV2Stack/TensorListStack/element_shape", "shape": [2], "dtype": "int32"}, {"name": "StatefulPartitionedCall/Transformer_encoder/bidirectional_2/backward_LSTM_0/transpose_1/perm", "shape": [3], "dtype": "int32"}, {"name": "StatefulPartitionedCall/Transformer_encoder/bidirectional_2/ReverseV2/axis", "shape": [1], "dtype": "int32"}, {"name": "StatefulPartitionedCall/Transformer_encoder/bidirectional_2/concat/axis", "shape": [], "dtype": "int32"}, {"name": "StatefulPartitionedCall/Transformer_encoder/bidirectional_3/backward_LSTM_1/transpose/perm", "shape": [3], "dtype": "int32"}, {"name": "StatefulPartitionedCall/Transformer_encoder/bidirectional_3/backward_LSTM_1/ReverseV2/axis", "shape": [1], "dtype": "int32"}, {"name": "StatefulPartitionedCall/Transformer_encoder/bidirectional_3/backward_LSTM_1/TensorArrayUnstack/TensorListFromTensor/element_shape", "shape": [2], "dtype": "int32"}, {"name": "StatefulPartitionedCall/Transformer_encoder/bidirectional_3/backward_LSTM_1/TensorArrayV2Stack/TensorListStack/element_shape", "shape": [2], "dtype": "int32"}, {"name": "StatefulPartitionedCall/Transformer_encoder/bidirectional_3/backward_LSTM_1/transpose_1/perm", "shape": [3], "dtype": "int32"}, {"name": "StatefulPartitionedCall/Transformer_encoder/bidirectional_3/ReverseV2/axis", "shape": [1], "dtype": "int32"}, {"name": "StatefulPartitionedCall/Transformer_encoder/bidirectional_3/concat/axis", "shape": [], "dtype": "int32"}, {"name": "StatefulPartitionedCall/Transformer_encoder/bidirectional_4/forward_LSTM_2/transpose/perm", "shape": [3], "dtype": "int32"}, {"name": "StatefulPartitionedCall/Transformer_encoder/bidirectional_4/forward_LSTM_2/TensorArrayUnstack/TensorListFromTensor/element_shape", "shape": [2], "dtype": "int32"}, {"name": "StatefulPartitionedCall/Transformer_encoder/bidirectional_4/forward_LSTM_2/TensorArrayV2_1/element_shape", "shape": [2], "dtype": "int32"}, {"name": "StatefulPartitionedCall/Transformer_encoder/bidirectional_4/forward_LSTM_2/TensorArrayV2_1/num_elements", "shape": [], "dtype": "int32"}, {"name": "StatefulPartitionedCall/Transformer_encoder/bidirectional_2/forward_LSTM_0/while/body/_55/Transformer_encoder/bidirectional_2/forward_LSTM_0/while/add_1/y", "shape": [], "dtype": "int32"}, {"name": "ConstantFolding/StatefulPartitionedCall/Transformer_encoder/bidirectional_2/forward_LSTM_0/while/body/_55/Transformer_encoder/bidirectional_2/forward_LSTM_0/while/lstm_cell/split-folded-3", "shape": [128, 64], "dtype": "float32"}, {"name": "ConstantFolding/StatefulPartitionedCall/Transformer_encoder/bidirectional_2/forward_LSTM_0/while/body/_55/Transformer_encoder/bidirectional_2/forward_LSTM_0/while/lstm_cell/split_1-folded-3", "shape": [64], "dtype": "float32"}, {"name": "ConstantFolding/StatefulPartitionedCall/Transformer_encoder/bidirectional_2/forward_LSTM_0/while/body/_55/Transformer_encoder/bidirectional_2/forward_LSTM_0/while/lstm_cell/split-folded-1", "shape": [128, 64], "dtype": "float32"}, {"name": "ConstantFolding/StatefulPartitionedCall/Transformer_encoder/bidirectional_2/forward_LSTM_0/while/body/_55/Transformer_encoder/bidirectional_2/forward_LSTM_0/while/lstm_cell/split_1-folded-1", "shape": [64], "dtype": "float32"}, {"name": "ConstantFolding/StatefulPartitionedCall/Transformer_encoder/bidirectional_2/forward_LSTM_0/while/body/_55/Transformer_encoder/bidirectional_2/forward_LSTM_0/while/lstm_cell/split-folded-0", "shape": [128, 64], "dtype": "float32"}, {"name": "ConstantFolding/StatefulPartitionedCall/Transformer_encoder/bidirectional_2/forward_LSTM_0/while/body/_55/Transformer_encoder/bidirectional_2/forward_LSTM_0/while/lstm_cell/split_1-folded-0", "shape": [64], "dtype": "float32"}, {"name": "StatefulPartitionedCall/Transformer_encoder/bidirectional_2/forward_LSTM_0/while/body/_55/Transformer_encoder/bidirectional_2/forward_LSTM_0/while/add/y", "shape": [], "dtype": "int32"}, {"name": "StatefulPartitionedCall/Transformer_encoder/bidirectional_2/forward_LSTM_0/while/body/_55/Transformer_encoder/bidirectional_2/forward_LSTM_0/while/TensorArrayV2Read/TensorListGetItem/element_shape", "shape": [2], "dtype": "int32"}, {"name": "ConstantFolding/StatefulPartitionedCall/Transformer_encoder/bidirectional_2/forward_LSTM_0/while/body/_55/Transformer_encoder/bidirectional_2/forward_LSTM_0/while/lstm_cell/split-folded-2", "shape": [128, 64], "dtype": "float32"}, {"name": "ConstantFolding/StatefulPartitionedCall/Transformer_encoder/bidirectional_2/forward_LSTM_0/while/body/_55/Transformer_encoder/bidirectional_2/forward_LSTM_0/while/lstm_cell/split_1-folded-2", "shape": [64], "dtype": "float32"}, {"name": "StatefulPartitionedCall/Transformer_encoder/bidirectional_2/forward_LSTM_0/while/body/_55/Transformer_encoder/bidirectional_2/forward_LSTM_0/while/lstm_cell/strided_slice_3", "shape": [64, 64], "dtype": "float32"}, {"name": "StatefulPartitionedCall/Transformer_encoder/bidirectional_2/forward_LSTM_0/while/body/_55/Transformer_encoder/bidirectional_2/forward_LSTM_0/while/lstm_cell/strided_slice_1", "shape": [64, 64], "dtype": "float32"}, {"name": "StatefulPartitionedCall/Transformer_encoder/bidirectional_2/forward_LSTM_0/while/body/_55/Transformer_encoder/bidirectional_2/forward_LSTM_0/while/lstm_cell/strided_slice", "shape": [64, 64], "dtype": "float32"}, {"name": "StatefulPartitionedCall/Transformer_encoder/bidirectional_2/forward_LSTM_0/while/body/_55/Transformer_encoder/bidirectional_2/forward_LSTM_0/while/lstm_cell/strided_slice_2", "shape": [64, 64], "dtype": "float32"}, {"name": "StatefulPartitionedCall/Transformer_encoder/bidirectional_2/backward_LSTM_0/while/body/_104/Transformer_encoder/bidirectional_2/backward_LSTM_0/while/add_1/y", "shape": [], "dtype": "int32"}, {"name": "ConstantFolding/StatefulPartitionedCall/Transformer_encoder/bidirectional_2/backward_LSTM_0/while/body/_104/Transformer_encoder/bidirectional_2/backward_LSTM_0/while/lstm_cell/split-folded-3", "shape": [128, 64], "dtype": "float32"}, {"name": "ConstantFolding/StatefulPartitionedCall/Transformer_encoder/bidirectional_2/backward_LSTM_0/while/body/_104/Transformer_encoder/bidirectional_2/backward_LSTM_0/while/lstm_cell/split_1-folded-3", "shape": [64], "dtype": "float32"}, {"name": "ConstantFolding/StatefulPartitionedCall/Transformer_encoder/bidirectional_2/backward_LSTM_0/while/body/_104/Transformer_encoder/bidirectional_2/backward_LSTM_0/while/lstm_cell/split-folded-1", "shape": [128, 64], "dtype": "float32"}, {"name": "ConstantFolding/StatefulPartitionedCall/Transformer_encoder/bidirectional_2/backward_LSTM_0/while/body/_104/Transformer_encoder/bidirectional_2/backward_LSTM_0/while/lstm_cell/split_1-folded-1", "shape": [64], "dtype": "float32"}, {"name": "ConstantFolding/StatefulPartitionedCall/Transformer_encoder/bidirectional_2/backward_LSTM_0/while/body/_104/Transformer_encoder/bidirectional_2/backward_LSTM_0/while/lstm_cell/split-folded-0", "shape": [128, 64], "dtype": "float32"}, {"name": "ConstantFolding/StatefulPartitionedCall/Transformer_encoder/bidirectional_2/backward_LSTM_0/while/body/_104/Transformer_encoder/bidirectional_2/backward_LSTM_0/while/lstm_cell/split_1-folded-0", "shape": [64], "dtype": "float32"}, {"name": "StatefulPartitionedCall/Transformer_encoder/bidirectional_2/backward_LSTM_0/while/body/_104/Transformer_encoder/bidirectional_2/backward_LSTM_0/while/add/y", "shape": [], "dtype": "int32"}, {"name": "StatefulPartitionedCall/Transformer_encoder/bidirectional_2/backward_LSTM_0/while/body/_104/Transformer_encoder/bidirectional_2/backward_LSTM_0/while/TensorArrayV2Read/TensorListGetItem/element_shape", "shape": [2], "dtype": "int32"}, {"name": "ConstantFolding/StatefulPartitionedCall/Transformer_encoder/bidirectional_2/backward_LSTM_0/while/body/_104/Transformer_encoder/bidirectional_2/backward_LSTM_0/while/lstm_cell/split-folded-2", "shape": [128, 64], "dtype": "float32"}, {"name": "ConstantFolding/StatefulPartitionedCall/Transformer_encoder/bidirectional_2/backward_LSTM_0/while/body/_104/Transformer_encoder/bidirectional_2/backward_LSTM_0/while/lstm_cell/split_1-folded-2", "shape": [64], "dtype": "float32"}, {"name": "StatefulPartitionedCall/Transformer_encoder/bidirectional_2/backward_LSTM_0/while/body/_104/Transformer_encoder/bidirectional_2/backward_LSTM_0/while/lstm_cell/strided_slice_3", "shape": [64, 64], "dtype": "float32"}, {"name": "StatefulPartitionedCall/Transformer_encoder/bidirectional_2/backward_LSTM_0/while/body/_104/Transformer_encoder/bidirectional_2/backward_LSTM_0/while/lstm_cell/strided_slice_1", "shape": [64, 64], "dtype": "float32"}, {"name": "StatefulPartitionedCall/Transformer_encoder/bidirectional_2/backward_LSTM_0/while/body/_104/Transformer_encoder/bidirectional_2/backward_LSTM_0/while/lstm_cell/strided_slice", "shape": [64, 64], "dtype": "float32"}, {"name": "StatefulPartitionedCall/Transformer_encoder/bidirectional_2/backward_LSTM_0/while/body/_104/Transformer_encoder/bidirectional_2/backward_LSTM_0/while/lstm_cell/strided_slice_2", "shape": [64, 64], "dtype": "float32"}, {"name": "StatefulPartitionedCall/Transformer_encoder/bidirectional_3/forward_LSTM_1/while/body/_153/Transformer_encoder/bidirectional_3/forward_LSTM_1/while/add_1/y", "shape": [], "dtype": "int32"}, {"name": "ConstantFolding/StatefulPartitionedCall/Transformer_encoder/bidirectional_3/forward_LSTM_1/while/body/_153/Transformer_encoder/bidirectional_3/forward_LSTM_1/while/lstm_cell/split-folded-3", "shape": [128, 64], "dtype": "float32"}, {"name": "ConstantFolding/StatefulPartitionedCall/Transformer_encoder/bidirectional_3/forward_LSTM_1/while/body/_153/Transformer_encoder/bidirectional_3/forward_LSTM_1/while/lstm_cell/split_1-folded-3", "shape": [64], "dtype": "float32"}, {"name": "ConstantFolding/StatefulPartitionedCall/Transformer_encoder/bidirectional_3/forward_LSTM_1/while/body/_153/Transformer_encoder/bidirectional_3/forward_LSTM_1/while/lstm_cell/split-folded-1", "shape": [128, 64], "dtype": "float32"}, {"name": "ConstantFolding/StatefulPartitionedCall/Transformer_encoder/bidirectional_3/forward_LSTM_1/while/body/_153/Transformer_encoder/bidirectional_3/forward_LSTM_1/while/lstm_cell/split_1-folded-1", "shape": [64], "dtype": "float32"}, {"name": "ConstantFolding/StatefulPartitionedCall/Transformer_encoder/bidirectional_3/forward_LSTM_1/while/body/_153/Transformer_encoder/bidirectional_3/forward_LSTM_1/while/lstm_cell/split-folded-0", "shape": [128, 64], "dtype": "float32"}, {"name": "ConstantFolding/StatefulPartitionedCall/Transformer_encoder/bidirectional_3/forward_LSTM_1/while/body/_153/Transformer_encoder/bidirectional_3/forward_LSTM_1/while/lstm_cell/split_1-folded-0", "shape": [64], "dtype": "float32"}, {"name": "StatefulPartitionedCall/Transformer_encoder/bidirectional_3/forward_LSTM_1/while/body/_153/Transformer_encoder/bidirectional_3/forward_LSTM_1/while/add/y", "shape": [], "dtype": "int32"}, {"name": "StatefulPartitionedCall/Transformer_encoder/bidirectional_3/forward_LSTM_1/while/body/_153/Transformer_encoder/bidirectional_3/forward_LSTM_1/while/TensorArrayV2Read/TensorListGetItem/element_shape", "shape": [2], "dtype": "int32"}, {"name": "ConstantFolding/StatefulPartitionedCall/Transformer_encoder/bidirectional_3/forward_LSTM_1/while/body/_153/Transformer_encoder/bidirectional_3/forward_LSTM_1/while/lstm_cell/split-folded-2", "shape": [128, 64], "dtype": "float32"}, {"name": "ConstantFolding/StatefulPartitionedCall/Transformer_encoder/bidirectional_3/forward_LSTM_1/while/body/_153/Transformer_encoder/bidirectional_3/forward_LSTM_1/while/lstm_cell/split_1-folded-2", "shape": [64], "dtype": "float32"}, {"name": "StatefulPartitionedCall/Transformer_encoder/bidirectional_3/forward_LSTM_1/while/body/_153/Transformer_encoder/bidirectional_3/forward_LSTM_1/while/lstm_cell/strided_slice_3", "shape": [64, 64], "dtype": "float32"}, {"name": "StatefulPartitionedCall/Transformer_encoder/bidirectional_3/forward_LSTM_1/while/body/_153/Transformer_encoder/bidirectional_3/forward_LSTM_1/while/lstm_cell/strided_slice_1", "shape": [64, 64], "dtype": "float32"}, {"name": "StatefulPartitionedCall/Transformer_encoder/bidirectional_3/forward_LSTM_1/while/body/_153/Transformer_encoder/bidirectional_3/forward_LSTM_1/while/lstm_cell/strided_slice", "shape": [64, 64], "dtype": "float32"}, {"name": "StatefulPartitionedCall/Transformer_encoder/bidirectional_3/forward_LSTM_1/while/body/_153/Transformer_encoder/bidirectional_3/forward_LSTM_1/while/lstm_cell/strided_slice_2", "shape": [64, 64], "dtype": "float32"}, {"name": "StatefulPartitionedCall/Transformer_encoder/bidirectional_3/backward_LSTM_1/while/body/_202/Transformer_encoder/bidirectional_3/backward_LSTM_1/while/add_1/y", "shape": [], "dtype": "int32"}, {"name": "ConstantFolding/StatefulPartitionedCall/Transformer_encoder/bidirectional_3/backward_LSTM_1/while/body/_202/Transformer_encoder/bidirectional_3/backward_LSTM_1/while/lstm_cell/split-folded-3", "shape": [128, 64], "dtype": "float32"}, {"name": "ConstantFolding/StatefulPartitionedCall/Transformer_encoder/bidirectional_3/backward_LSTM_1/while/body/_202/Transformer_encoder/bidirectional_3/backward_LSTM_1/while/lstm_cell/split_1-folded-3", "shape": [64], "dtype": "float32"}, {"name": "ConstantFolding/StatefulPartitionedCall/Transformer_encoder/bidirectional_3/backward_LSTM_1/while/body/_202/Transformer_encoder/bidirectional_3/backward_LSTM_1/while/lstm_cell/split-folded-1", "shape": [128, 64], "dtype": "float32"}, {"name": "ConstantFolding/StatefulPartitionedCall/Transformer_encoder/bidirectional_3/backward_LSTM_1/while/body/_202/Transformer_encoder/bidirectional_3/backward_LSTM_1/while/lstm_cell/split_1-folded-1", "shape": [64], "dtype": "float32"}, {"name": "ConstantFolding/StatefulPartitionedCall/Transformer_encoder/bidirectional_3/backward_LSTM_1/while/body/_202/Transformer_encoder/bidirectional_3/backward_LSTM_1/while/lstm_cell/split-folded-0", "shape": [128, 64], "dtype": "float32"}, {"name": "ConstantFolding/StatefulPartitionedCall/Transformer_encoder/bidirectional_3/backward_LSTM_1/while/body/_202/Transformer_encoder/bidirectional_3/backward_LSTM_1/while/lstm_cell/split_1-folded-0", "shape": [64], "dtype": "float32"}, {"name": "StatefulPartitionedCall/Transformer_encoder/bidirectional_3/backward_LSTM_1/while/body/_202/Transformer_encoder/bidirectional_3/backward_LSTM_1/while/add/y", "shape": [], "dtype": "int32"}, {"name": "StatefulPartitionedCall/Transformer_encoder/bidirectional_3/backward_LSTM_1/while/body/_202/Transformer_encoder/bidirectional_3/backward_LSTM_1/while/TensorArrayV2Read/TensorListGetItem/element_shape", "shape": [2], "dtype": "int32"}, {"name": "ConstantFolding/StatefulPartitionedCall/Transformer_encoder/bidirectional_3/backward_LSTM_1/while/body/_202/Transformer_encoder/bidirectional_3/backward_LSTM_1/while/lstm_cell/split-folded-2", "shape": [128, 64], "dtype": "float32"}, {"name": "ConstantFolding/StatefulPartitionedCall/Transformer_encoder/bidirectional_3/backward_LSTM_1/while/body/_202/Transformer_encoder/bidirectional_3/backward_LSTM_1/while/lstm_cell/split_1-folded-2", "shape": [64], "dtype": "float32"}, {"name": "StatefulPartitionedCall/Transformer_encoder/bidirectional_3/backward_LSTM_1/while/body/_202/Transformer_encoder/bidirectional_3/backward_LSTM_1/while/lstm_cell/strided_slice_3", "shape": [64, 64], "dtype": "float32"}, {"name": "StatefulPartitionedCall/Transformer_encoder/bidirectional_3/backward_LSTM_1/while/body/_202/Transformer_encoder/bidirectional_3/backward_LSTM_1/while/lstm_cell/strided_slice_1", "shape": [64, 64], "dtype": "float32"}, {"name": "StatefulPartitionedCall/Transformer_encoder/bidirectional_3/backward_LSTM_1/while/body/_202/Transformer_encoder/bidirectional_3/backward_LSTM_1/while/lstm_cell/strided_slice", "shape": [64, 64], "dtype": "float32"}, {"name": "StatefulPartitionedCall/Transformer_encoder/bidirectional_3/backward_LSTM_1/while/body/_202/Transformer_encoder/bidirectional_3/backward_LSTM_1/while/lstm_cell/strided_slice_2", "shape": [64, 64], "dtype": "float32"}, {"name": "StatefulPartitionedCall/Transformer_encoder/bidirectional_4/backward_LSTM_2/while/body/_300/Transformer_encoder/bidirectional_4/backward_LSTM_2/while/add/y", "shape": [], "dtype": "int32"}, {"name": "StatefulPartitionedCall/Transformer_encoder/bidirectional_4/backward_LSTM_2/while/body/_300/Transformer_encoder/bidirectional_4/backward_LSTM_2/while/TensorArrayV2Write/TensorListSetItem/index", "shape": [], "dtype": "int32"}, {"name": "StatefulPartitionedCall/Transformer_encoder/bidirectional_4/backward_LSTM_2/while/body/_300/Transformer_encoder/bidirectional_4/backward_LSTM_2/while/add_1/y", "shape": [], "dtype": "int32"}, {"name": "ConstantFolding/StatefulPartitionedCall/Transformer_encoder/bidirectional_4/backward_LSTM_2/while/body/_300/Transformer_encoder/bidirectional_4/backward_LSTM_2/while/lstm_cell/split-folded-3", "shape": [128, 64], "dtype": "float32"}, {"name": "ConstantFolding/StatefulPartitionedCall/Transformer_encoder/bidirectional_4/backward_LSTM_2/while/body/_300/Transformer_encoder/bidirectional_4/backward_LSTM_2/while/lstm_cell/split_1-folded-3", "shape": [64], "dtype": "float32"}, {"name": "ConstantFolding/StatefulPartitionedCall/Transformer_encoder/bidirectional_4/backward_LSTM_2/while/body/_300/Transformer_encoder/bidirectional_4/backward_LSTM_2/while/lstm_cell/split-folded-1", "shape": [128, 64], "dtype": "float32"}, {"name": "ConstantFolding/StatefulPartitionedCall/Transformer_encoder/bidirectional_4/backward_LSTM_2/while/body/_300/Transformer_encoder/bidirectional_4/backward_LSTM_2/while/lstm_cell/split_1-folded-1", "shape": [64], "dtype": "float32"}, {"name": "ConstantFolding/StatefulPartitionedCall/Transformer_encoder/bidirectional_4/backward_LSTM_2/while/body/_300/Transformer_encoder/bidirectional_4/backward_LSTM_2/while/lstm_cell/split-folded-0", "shape": [128, 64], "dtype": "float32"}, {"name": "ConstantFolding/StatefulPartitionedCall/Transformer_encoder/bidirectional_4/backward_LSTM_2/while/body/_300/Transformer_encoder/bidirectional_4/backward_LSTM_2/while/lstm_cell/split_1-folded-0", "shape": [64], "dtype": "float32"}, {"name": "StatefulPartitionedCall/Transformer_encoder/bidirectional_4/backward_LSTM_2/while/body/_300/Transformer_encoder/bidirectional_4/backward_LSTM_2/while/TensorArrayV2Read/TensorListGetItem/element_shape", "shape": [2], "dtype": "int32"}, {"name": "ConstantFolding/StatefulPartitionedCall/Transformer_encoder/bidirectional_4/backward_LSTM_2/while/body/_300/Transformer_encoder/bidirectional_4/backward_LSTM_2/while/lstm_cell/split-folded-2", "shape": [128, 64], "dtype": "float32"}, {"name": "ConstantFolding/StatefulPartitionedCall/Transformer_encoder/bidirectional_4/backward_LSTM_2/while/body/_300/Transformer_encoder/bidirectional_4/backward_LSTM_2/while/lstm_cell/split_1-folded-2", "shape": [64], "dtype": "float32"}, {"name": "StatefulPartitionedCall/Transformer_encoder/bidirectional_4/backward_LSTM_2/while/body/_300/Transformer_encoder/bidirectional_4/backward_LSTM_2/while/lstm_cell/strided_slice_3", "shape": [64, 64], "dtype": "float32"}, {"name": "StatefulPartitionedCall/Transformer_encoder/bidirectional_4/backward_LSTM_2/while/body/_300/Transformer_encoder/bidirectional_4/backward_LSTM_2/while/lstm_cell/strided_slice_1", "shape": [64, 64], "dtype": "float32"}, {"name": "StatefulPartitionedCall/Transformer_encoder/bidirectional_4/backward_LSTM_2/while/body/_300/Transformer_encoder/bidirectional_4/backward_LSTM_2/while/lstm_cell/strided_slice", "shape": [64, 64], "dtype": "float32"}, {"name": "StatefulPartitionedCall/Transformer_encoder/bidirectional_4/backward_LSTM_2/while/body/_300/Transformer_encoder/bidirectional_4/backward_LSTM_2/while/lstm_cell/strided_slice_2", "shape": [64, 64], "dtype": "float32"}, {"name": "StatefulPartitionedCall/Transformer_encoder/bidirectional_4/forward_LSTM_2/while/body/_251/Transformer_encoder/bidirectional_4/forward_LSTM_2/while/add_1/y", "shape": [], "dtype": "int32"}, {"name": "StatefulPartitionedCall/Transformer_encoder/bidirectional_4/forward_LSTM_2/while/body/_251/Transformer_encoder/bidirectional_4/forward_LSTM_2/while/TensorArrayV2Write/TensorListSetItem/index", "shape": [], "dtype": "int32"}, {"name": "ConstantFolding/StatefulPartitionedCall/Transformer_encoder/bidirectional_4/forward_LSTM_2/while/body/_251/Transformer_encoder/bidirectional_4/forward_LSTM_2/while/lstm_cell/split-folded-3", "shape": [128, 64], "dtype": "float32"}, {"name": "ConstantFolding/StatefulPartitionedCall/Transformer_encoder/bidirectional_4/forward_LSTM_2/while/body/_251/Transformer_encoder/bidirectional_4/forward_LSTM_2/while/lstm_cell/split_1-folded-3", "shape": [64], "dtype": "float32"}, {"name": "ConstantFolding/StatefulPartitionedCall/Transformer_encoder/bidirectional_4/forward_LSTM_2/while/body/_251/Transformer_encoder/bidirectional_4/forward_LSTM_2/while/lstm_cell/split-folded-1", "shape": [128, 64], "dtype": "float32"}, {"name": "ConstantFolding/StatefulPartitionedCall/Transformer_encoder/bidirectional_4/forward_LSTM_2/while/body/_251/Transformer_encoder/bidirectional_4/forward_LSTM_2/while/lstm_cell/split_1-folded-1", "shape": [64], "dtype": "float32"}, {"name": "ConstantFolding/StatefulPartitionedCall/Transformer_encoder/bidirectional_4/forward_LSTM_2/while/body/_251/Transformer_encoder/bidirectional_4/forward_LSTM_2/while/lstm_cell/split-folded-0", "shape": [128, 64], "dtype": "float32"}, {"name": "ConstantFolding/StatefulPartitionedCall/Transformer_encoder/bidirectional_4/forward_LSTM_2/while/body/_251/Transformer_encoder/bidirectional_4/forward_LSTM_2/while/lstm_cell/split_1-folded-0", "shape": [64], "dtype": "float32"}, {"name": "StatefulPartitionedCall/Transformer_encoder/bidirectional_4/forward_LSTM_2/while/body/_251/Transformer_encoder/bidirectional_4/forward_LSTM_2/while/add/y", "shape": [], "dtype": "int32"}, {"name": "StatefulPartitionedCall/Transformer_encoder/bidirectional_4/forward_LSTM_2/while/body/_251/Transformer_encoder/bidirectional_4/forward_LSTM_2/while/TensorArrayV2Read/TensorListGetItem/element_shape", "shape": [2], "dtype": "int32"}, {"name": "ConstantFolding/StatefulPartitionedCall/Transformer_encoder/bidirectional_4/forward_LSTM_2/while/body/_251/Transformer_encoder/bidirectional_4/forward_LSTM_2/while/lstm_cell/split-folded-2", "shape": [128, 64], "dtype": "float32"}, {"name": "ConstantFolding/StatefulPartitionedCall/Transformer_encoder/bidirectional_4/forward_LSTM_2/while/body/_251/Transformer_encoder/bidirectional_4/forward_LSTM_2/while/lstm_cell/split_1-folded-2", "shape": [64], "dtype": "float32"}, {"name": "StatefulPartitionedCall/Transformer_encoder/bidirectional_4/forward_LSTM_2/while/body/_251/Transformer_encoder/bidirectional_4/forward_LSTM_2/while/lstm_cell/strided_slice_3", "shape": [64, 64], "dtype": "float32"}, {"name": "StatefulPartitionedCall/Transformer_encoder/bidirectional_4/forward_LSTM_2/while/body/_251/Transformer_encoder/bidirectional_4/forward_LSTM_2/while/lstm_cell/strided_slice_1", "shape": [64, 64], "dtype": "float32"}, {"name": "StatefulPartitionedCall/Transformer_encoder/bidirectional_4/forward_LSTM_2/while/body/_251/Transformer_encoder/bidirectional_4/forward_LSTM_2/while/lstm_cell/strided_slice", "shape": [64, 64], "dtype": "float32"}, {"name": "StatefulPartitionedCall/Transformer_encoder/bidirectional_4/forward_LSTM_2/while/body/_251/Transformer_encoder/bidirectional_4/forward_LSTM_2/while/lstm_cell/strided_slice_2", "shape": [64, 64], "dtype": "float32"}]}]}